{
  "nodes": [
    {
      "op": "null", 
      "name": "data", 
      "inputs": []
    }, 
    {
      "op": "Cast", 
      "name": "east0_cast0", 
      "attrs": {"dtype": "float16"}, 
      "inputs": [[0, 0, 0]]
    }, 
    {
      "op": "null", 
      "name": "east0_resnetv1d_conv0_weight", 
      "attrs": {
        "__dtype__": "0", 
        "__lr_mult__": "1.0", 
        "__shape__": "(32, 0, 3, 3)", 
        "__storage_type__": "0", 
        "__wd_mult__": "1.0"
      }, 
      "inputs": []
    }, 
    {
      "op": "Convolution", 
      "name": "east0_resnetv1d_conv0_fwd", 
      "attrs": {
        "dilate": "(1, 1)", 
        "kernel": "(3, 3)", 
        "layout": "NCHW", 
        "no_bias": "True", 
        "num_filter": "32", 
        "num_group": "1", 
        "pad": "(1, 1)", 
        "stride": "(2, 2)"
      }, 
      "inputs": [[1, 0, 0], [2, 0, 0]]
    }, 
    {
      "op": "null", 
      "name": "east0_resnetv1d_batchnorm0_gamma", 
      "attrs": {
        "__dtype__": "0", 
        "__init__": "ones", 
        "__lr_mult__": "1.0", 
        "__shape__": "(32,)", 
        "__storage_type__": "0", 
        "__wd_mult__": "1.0"
      }, 
      "inputs": []
    }, 
    {
      "op": "null", 
      "name": "east0_resnetv1d_batchnorm0_beta", 
      "attrs": {
        "__dtype__": "0", 
        "__init__": "zeros", 
        "__lr_mult__": "1.0", 
        "__shape__": "(32,)", 
        "__storage_type__": "0", 
        "__wd_mult__": "1.0"
      }, 
      "inputs": []
    }, 
    {
      "op": "null", 
      "name": "east0_resnetv1d_batchnorm0_running_mean", 
      "attrs": {
        "__dtype__": "0", 
        "__init__": "zeros", 
        "__lr_mult__": "1.0", 
        "__shape__": "(32,)", 
        "__storage_type__": "0", 
        "__wd_mult__": "1.0"
      }, 
      "inputs": []
    }, 
    {
      "op": "null", 
      "name": "east0_resnetv1d_batchnorm0_running_var", 
      "attrs": {
        "__dtype__": "0", 
        "__init__": "ones", 
        "__lr_mult__": "1.0", 
        "__shape__": "(32,)", 
        "__storage_type__": "0", 
        "__wd_mult__": "1.0"
      }, 
      "inputs": []
    }, 
    {
      "op": "BatchNorm", 
      "name": "east0_resnetv1d_batchnorm0_fwd", 
      "attrs": {
        "axis": "1", 
        "eps": "1e-05", 
        "fix_gamma": "False", 
        "momentum": "0.9", 
        "use_global_stats": "False"
      }, 
      "inputs": [[3, 0, 0], [4, 0, 0], [5, 0, 0], [6, 0, 1], [7, 0, 1]]
    }, 
    {
      "op": "Activation", 
      "name": "east0_resnetv1d_relu0_fwd", 
      "attrs": {"act_type": "relu"}, 
      "inputs": [[8, 0, 0]]
    }, 
    {
      "op": "null", 
      "name": "east0_resnetv1d_conv1_weight", 
      "attrs": {
        "__dtype__": "0", 
        "__lr_mult__": "1.0", 
        "__shape__": "(32, 0, 3, 3)", 
        "__storage_type__": "0", 
        "__wd_mult__": "1.0"
      }, 
      "inputs": []
    }, 
    {
      "op": "Convolution", 
      "name": "east0_resnetv1d_conv1_fwd", 
      "attrs": {
        "dilate": "(1, 1)", 
        "kernel": "(3, 3)", 
        "layout": "NCHW", 
        "no_bias": "True", 
        "num_filter": "32", 
        "num_group": "1", 
        "pad": "(1, 1)", 
        "stride": "(1, 1)"
      }, 
      "inputs": [[9, 0, 0], [10, 0, 0]]
    }, 
    {
      "op": "null", 
      "name": "east0_resnetv1d_batchnorm1_gamma", 
      "attrs": {
        "__dtype__": "0", 
        "__init__": "ones", 
        "__lr_mult__": "1.0", 
        "__shape__": "(32,)", 
        "__storage_type__": "0", 
        "__wd_mult__": "1.0"
      }, 
      "inputs": []
    }, 
    {
      "op": "null", 
      "name": "east0_resnetv1d_batchnorm1_beta", 
      "attrs": {
        "__dtype__": "0", 
        "__init__": "zeros", 
        "__lr_mult__": "1.0", 
        "__shape__": "(32,)", 
        "__storage_type__": "0", 
        "__wd_mult__": "1.0"
      }, 
      "inputs": []
    }, 
    {
      "op": "null", 
      "name": "east0_resnetv1d_batchnorm1_running_mean", 
      "attrs": {
        "__dtype__": "0", 
        "__init__": "zeros", 
        "__lr_mult__": "1.0", 
        "__shape__": "(32,)", 
        "__storage_type__": "0", 
        "__wd_mult__": "1.0"
      }, 
      "inputs": []
    }, 
    {
      "op": "null", 
      "name": "east0_resnetv1d_batchnorm1_running_var", 
      "attrs": {
        "__dtype__": "0", 
        "__init__": "ones", 
        "__lr_mult__": "1.0", 
        "__shape__": "(32,)", 
        "__storage_type__": "0", 
        "__wd_mult__": "1.0"
      }, 
      "inputs": []
    }, 
    {
      "op": "BatchNorm", 
      "name": "east0_resnetv1d_batchnorm1_fwd", 
      "attrs": {
        "axis": "1", 
        "eps": "1e-05", 
        "fix_gamma": "False", 
        "momentum": "0.9", 
        "use_global_stats": "False"
      }, 
      "inputs": [[11, 0, 0], [12, 0, 0], [13, 0, 0], [14, 0, 1], [15, 0, 1]]
    }, 
    {
      "op": "Activation", 
      "name": "east0_resnetv1d_relu1_fwd", 
      "attrs": {"act_type": "relu"}, 
      "inputs": [[16, 0, 0]]
    }, 
    {
      "op": "null", 
      "name": "east0_resnetv1d_conv2_weight", 
      "attrs": {
        "__dtype__": "0", 
        "__lr_mult__": "1.0", 
        "__shape__": "(64, 0, 3, 3)", 
        "__storage_type__": "0", 
        "__wd_mult__": "1.0"
      }, 
      "inputs": []
    }, 
    {
      "op": "Convolution", 
      "name": "east0_resnetv1d_conv2_fwd", 
      "attrs": {
        "dilate": "(1, 1)", 
        "kernel": "(3, 3)", 
        "layout": "NCHW", 
        "no_bias": "True", 
        "num_filter": "64", 
        "num_group": "1", 
        "pad": "(1, 1)", 
        "stride": "(1, 1)"
      }, 
      "inputs": [[17, 0, 0], [18, 0, 0]]
    }, 
    {
      "op": "null", 
      "name": "east0_resnetv1d_batchnorm2_gamma", 
      "attrs": {
        "__dtype__": "0", 
        "__init__": "ones", 
        "__lr_mult__": "1.0", 
        "__shape__": "(64,)", 
        "__storage_type__": "0", 
        "__wd_mult__": "1.0"
      }, 
      "inputs": []
    }, 
    {
      "op": "null", 
      "name": "east0_resnetv1d_batchnorm2_beta", 
      "attrs": {
        "__dtype__": "0", 
        "__init__": "zeros", 
        "__lr_mult__": "1.0", 
        "__shape__": "(64,)", 
        "__storage_type__": "0", 
        "__wd_mult__": "1.0"
      }, 
      "inputs": []
    }, 
    {
      "op": "null", 
      "name": "east0_resnetv1d_batchnorm2_running_mean", 
      "attrs": {
        "__dtype__": "0", 
        "__init__": "zeros", 
        "__lr_mult__": "1.0", 
        "__shape__": "(64,)", 
        "__storage_type__": "0", 
        "__wd_mult__": "1.0"
      }, 
      "inputs": []
    }, 
    {
      "op": "null", 
      "name": "east0_resnetv1d_batchnorm2_running_var", 
      "attrs": {
        "__dtype__": "0", 
        "__init__": "ones", 
        "__lr_mult__": "1.0", 
        "__shape__": "(64,)", 
        "__storage_type__": "0", 
        "__wd_mult__": "1.0"
      }, 
      "inputs": []
    }, 
    {
      "op": "BatchNorm", 
      "name": "east0_resnetv1d_batchnorm2_fwd", 
      "attrs": {
        "axis": "1", 
        "eps": "1e-05", 
        "fix_gamma": "False", 
        "momentum": "0.9", 
        "use_global_stats": "False"
      }, 
      "inputs": [[19, 0, 0], [20, 0, 0], [21, 0, 0], [22, 0, 1], [23, 0, 1]]
    }, 
    {
      "op": "Activation", 
      "name": "east0_resnetv1d_relu2_fwd", 
      "attrs": {"act_type": "relu"}, 
      "inputs": [[24, 0, 0]]
    }, 
    {
      "op": "Pooling", 
      "name": "east0_resnetv1d_pool0_fwd", 
      "attrs": {
        "global_pool": "False", 
        "kernel": "(3, 3)", 
        "pad": "(1, 1)", 
        "pool_type": "max", 
        "pooling_convention": "valid", 
        "stride": "(2, 2)"
      }, 
      "inputs": [[25, 0, 0]]
    }, 
    {
      "op": "null", 
      "name": "east0_resnetv1d_layers1_conv0_weight", 
      "attrs": {
        "__dtype__": "0", 
        "__lr_mult__": "1.0", 
        "__shape__": "(64, 0, 1, 1)", 
        "__storage_type__": "0", 
        "__wd_mult__": "1.0"
      }, 
      "inputs": []
    }, 
    {
      "op": "Convolution", 
      "name": "east0_resnetv1d_layers1_conv0_fwd", 
      "attrs": {
        "dilate": "(1, 1)", 
        "kernel": "(1, 1)", 
        "layout": "NCHW", 
        "no_bias": "True", 
        "num_filter": "64", 
        "num_group": "1", 
        "pad": "(0, 0)", 
        "stride": "(1, 1)"
      }, 
      "inputs": [[26, 0, 0], [27, 0, 0]]
    }, 
    {
      "op": "null", 
      "name": "east0_resnetv1d_layers1_batchnorm0_gamma", 
      "attrs": {
        "__dtype__": "0", 
        "__init__": "ones", 
        "__lr_mult__": "1.0", 
        "__shape__": "(64,)", 
        "__storage_type__": "0", 
        "__wd_mult__": "1.0"
      }, 
      "inputs": []
    }, 
    {
      "op": "null", 
      "name": "east0_resnetv1d_layers1_batchnorm0_beta", 
      "attrs": {
        "__dtype__": "0", 
        "__init__": "zeros", 
        "__lr_mult__": "1.0", 
        "__shape__": "(64,)", 
        "__storage_type__": "0", 
        "__wd_mult__": "1.0"
      }, 
      "inputs": []
    }, 
    {
      "op": "null", 
      "name": "east0_resnetv1d_layers1_batchnorm0_running_mean", 
      "attrs": {
        "__dtype__": "0", 
        "__init__": "zeros", 
        "__lr_mult__": "1.0", 
        "__shape__": "(64,)", 
        "__storage_type__": "0", 
        "__wd_mult__": "1.0"
      }, 
      "inputs": []
    }, 
    {
      "op": "null", 
      "name": "east0_resnetv1d_layers1_batchnorm0_running_var", 
      "attrs": {
        "__dtype__": "0", 
        "__init__": "ones", 
        "__lr_mult__": "1.0", 
        "__shape__": "(64,)", 
        "__storage_type__": "0", 
        "__wd_mult__": "1.0"
      }, 
      "inputs": []
    }, 
    {
      "op": "BatchNorm", 
      "name": "east0_resnetv1d_layers1_batchnorm0_fwd", 
      "attrs": {
        "axis": "1", 
        "eps": "1e-05", 
        "fix_gamma": "False", 
        "momentum": "0.9", 
        "use_global_stats": "False"
      }, 
      "inputs": [[28, 0, 0], [29, 0, 0], [30, 0, 0], [31, 0, 1], [32, 0, 1]]
    }, 
    {
      "op": "Activation", 
      "name": "east0_resnetv1d_layers1_relu0_fwd", 
      "attrs": {"act_type": "relu"}, 
      "inputs": [[33, 0, 0]]
    }, 
    {
      "op": "null", 
      "name": "east0_resnetv1d_layers1_conv1_weight", 
      "attrs": {
        "__dtype__": "0", 
        "__lr_mult__": "1.0", 
        "__shape__": "(64, 0, 3, 3)", 
        "__storage_type__": "0", 
        "__wd_mult__": "1.0"
      }, 
      "inputs": []
    }, 
    {
      "op": "Convolution", 
      "name": "east0_resnetv1d_layers1_conv1_fwd", 
      "attrs": {
        "dilate": "(1, 1)", 
        "kernel": "(3, 3)", 
        "layout": "NCHW", 
        "no_bias": "True", 
        "num_filter": "64", 
        "num_group": "1", 
        "pad": "(1, 1)", 
        "stride": "(1, 1)"
      }, 
      "inputs": [[34, 0, 0], [35, 0, 0]]
    }, 
    {
      "op": "null", 
      "name": "east0_resnetv1d_layers1_batchnorm1_gamma", 
      "attrs": {
        "__dtype__": "0", 
        "__init__": "ones", 
        "__lr_mult__": "1.0", 
        "__shape__": "(64,)", 
        "__storage_type__": "0", 
        "__wd_mult__": "1.0"
      }, 
      "inputs": []
    }, 
    {
      "op": "null", 
      "name": "east0_resnetv1d_layers1_batchnorm1_beta", 
      "attrs": {
        "__dtype__": "0", 
        "__init__": "zeros", 
        "__lr_mult__": "1.0", 
        "__shape__": "(64,)", 
        "__storage_type__": "0", 
        "__wd_mult__": "1.0"
      }, 
      "inputs": []
    }, 
    {
      "op": "null", 
      "name": "east0_resnetv1d_layers1_batchnorm1_running_mean", 
      "attrs": {
        "__dtype__": "0", 
        "__init__": "zeros", 
        "__lr_mult__": "1.0", 
        "__shape__": "(64,)", 
        "__storage_type__": "0", 
        "__wd_mult__": "1.0"
      }, 
      "inputs": []
    }, 
    {
      "op": "null", 
      "name": "east0_resnetv1d_layers1_batchnorm1_running_var", 
      "attrs": {
        "__dtype__": "0", 
        "__init__": "ones", 
        "__lr_mult__": "1.0", 
        "__shape__": "(64,)", 
        "__storage_type__": "0", 
        "__wd_mult__": "1.0"
      }, 
      "inputs": []
    }, 
    {
      "op": "BatchNorm", 
      "name": "east0_resnetv1d_layers1_batchnorm1_fwd", 
      "attrs": {
        "axis": "1", 
        "eps": "1e-05", 
        "fix_gamma": "False", 
        "momentum": "0.9", 
        "use_global_stats": "False"
      }, 
      "inputs": [[36, 0, 0], [37, 0, 0], [38, 0, 0], [39, 0, 1], [40, 0, 1]]
    }, 
    {
      "op": "Activation", 
      "name": "east0_resnetv1d_layers1_relu1_fwd", 
      "attrs": {"act_type": "relu"}, 
      "inputs": [[41, 0, 0]]
    }, 
    {
      "op": "null", 
      "name": "east0_resnetv1d_layers1_conv2_weight", 
      "attrs": {
        "__dtype__": "0", 
        "__lr_mult__": "1.0", 
        "__shape__": "(256, 0, 1, 1)", 
        "__storage_type__": "0", 
        "__wd_mult__": "1.0"
      }, 
      "inputs": []
    }, 
    {
      "op": "Convolution", 
      "name": "east0_resnetv1d_layers1_conv2_fwd", 
      "attrs": {
        "dilate": "(1, 1)", 
        "kernel": "(1, 1)", 
        "layout": "NCHW", 
        "no_bias": "True", 
        "num_filter": "256", 
        "num_group": "1", 
        "pad": "(0, 0)", 
        "stride": "(1, 1)"
      }, 
      "inputs": [[42, 0, 0], [43, 0, 0]]
    }, 
    {
      "op": "null", 
      "name": "east0_resnetv1d_layers1_batchnorm2_gamma", 
      "attrs": {
        "__dtype__": "0", 
        "__init__": "ones", 
        "__lr_mult__": "1.0", 
        "__shape__": "(256,)", 
        "__storage_type__": "0", 
        "__wd_mult__": "1.0"
      }, 
      "inputs": []
    }, 
    {
      "op": "null", 
      "name": "east0_resnetv1d_layers1_batchnorm2_beta", 
      "attrs": {
        "__dtype__": "0", 
        "__init__": "zeros", 
        "__lr_mult__": "1.0", 
        "__shape__": "(256,)", 
        "__storage_type__": "0", 
        "__wd_mult__": "1.0"
      }, 
      "inputs": []
    }, 
    {
      "op": "null", 
      "name": "east0_resnetv1d_layers1_batchnorm2_running_mean", 
      "attrs": {
        "__dtype__": "0", 
        "__init__": "zeros", 
        "__lr_mult__": "1.0", 
        "__shape__": "(256,)", 
        "__storage_type__": "0", 
        "__wd_mult__": "1.0"
      }, 
      "inputs": []
    }, 
    {
      "op": "null", 
      "name": "east0_resnetv1d_layers1_batchnorm2_running_var", 
      "attrs": {
        "__dtype__": "0", 
        "__init__": "ones", 
        "__lr_mult__": "1.0", 
        "__shape__": "(256,)", 
        "__storage_type__": "0", 
        "__wd_mult__": "1.0"
      }, 
      "inputs": []
    }, 
    {
      "op": "BatchNorm", 
      "name": "east0_resnetv1d_layers1_batchnorm2_fwd", 
      "attrs": {
        "axis": "1", 
        "eps": "1e-05", 
        "fix_gamma": "False", 
        "momentum": "0.9", 
        "use_global_stats": "False"
      }, 
      "inputs": [[44, 0, 0], [45, 0, 0], [46, 0, 0], [47, 0, 1], [48, 0, 1]]
    }, 
    {
      "op": "Pooling", 
      "name": "east0_resnetv1d_down1_pool0_fwd", 
      "attrs": {
        "count_include_pad": "False", 
        "global_pool": "False", 
        "kernel": "(1, 1)", 
        "pad": "(0, 0)", 
        "pool_type": "avg", 
        "pooling_convention": "full", 
        "stride": "(1, 1)"
      }, 
      "inputs": [[26, 0, 0]]
    }, 
    {
      "op": "null", 
      "name": "east0_resnetv1d_down1_conv0_weight", 
      "attrs": {
        "__dtype__": "0", 
        "__lr_mult__": "1.0", 
        "__shape__": "(256, 0, 1, 1)", 
        "__storage_type__": "0", 
        "__wd_mult__": "1.0"
      }, 
      "inputs": []
    }, 
    {
      "op": "Convolution", 
      "name": "east0_resnetv1d_down1_conv0_fwd", 
      "attrs": {
        "dilate": "(1, 1)", 
        "kernel": "(1, 1)", 
        "layout": "NCHW", 
        "no_bias": "True", 
        "num_filter": "256", 
        "num_group": "1", 
        "pad": "(0, 0)", 
        "stride": "(1, 1)"
      }, 
      "inputs": [[50, 0, 0], [51, 0, 0]]
    }, 
    {
      "op": "null", 
      "name": "east0_resnetv1d_down1_batchnorm0_gamma", 
      "attrs": {
        "__dtype__": "0", 
        "__init__": "ones", 
        "__lr_mult__": "1.0", 
        "__shape__": "(256,)", 
        "__storage_type__": "0", 
        "__wd_mult__": "1.0"
      }, 
      "inputs": []
    }, 
    {
      "op": "null", 
      "name": "east0_resnetv1d_down1_batchnorm0_beta", 
      "attrs": {
        "__dtype__": "0", 
        "__init__": "zeros", 
        "__lr_mult__": "1.0", 
        "__shape__": "(256,)", 
        "__storage_type__": "0", 
        "__wd_mult__": "1.0"
      }, 
      "inputs": []
    }, 
    {
      "op": "null", 
      "name": "east0_resnetv1d_down1_batchnorm0_running_mean", 
      "attrs": {
        "__dtype__": "0", 
        "__init__": "zeros", 
        "__lr_mult__": "1.0", 
        "__shape__": "(256,)", 
        "__storage_type__": "0", 
        "__wd_mult__": "1.0"
      }, 
      "inputs": []
    }, 
    {
      "op": "null", 
      "name": "east0_resnetv1d_down1_batchnorm0_running_var", 
      "attrs": {
        "__dtype__": "0", 
        "__init__": "ones", 
        "__lr_mult__": "1.0", 
        "__shape__": "(256,)", 
        "__storage_type__": "0", 
        "__wd_mult__": "1.0"
      }, 
      "inputs": []
    }, 
    {
      "op": "BatchNorm", 
      "name": "east0_resnetv1d_down1_batchnorm0_fwd", 
      "attrs": {
        "axis": "1", 
        "eps": "1e-05", 
        "fix_gamma": "False", 
        "momentum": "0.9", 
        "use_global_stats": "False"
      }, 
      "inputs": [[52, 0, 0], [53, 0, 0], [54, 0, 0], [55, 0, 1], [56, 0, 1]]
    }, 
    {
      "op": "elemwise_add", 
      "name": "east0_resnetv1d_layers1_bottleneckv1b0__plus0", 
      "inputs": [[49, 0, 0], [57, 0, 0]]
    }, 
    {
      "op": "Activation", 
      "name": "east0_resnetv1d_layers1_relu2_fwd", 
      "attrs": {"act_type": "relu"}, 
      "inputs": [[58, 0, 0]]
    }, 
    {
      "op": "null", 
      "name": "east0_resnetv1d_layers1_conv3_weight", 
      "attrs": {
        "__dtype__": "0", 
        "__lr_mult__": "1.0", 
        "__shape__": "(64, 0, 1, 1)", 
        "__storage_type__": "0", 
        "__wd_mult__": "1.0"
      }, 
      "inputs": []
    }, 
    {
      "op": "Convolution", 
      "name": "east0_resnetv1d_layers1_conv3_fwd", 
      "attrs": {
        "dilate": "(1, 1)", 
        "kernel": "(1, 1)", 
        "layout": "NCHW", 
        "no_bias": "True", 
        "num_filter": "64", 
        "num_group": "1", 
        "pad": "(0, 0)", 
        "stride": "(1, 1)"
      }, 
      "inputs": [[59, 0, 0], [60, 0, 0]]
    }, 
    {
      "op": "null", 
      "name": "east0_resnetv1d_layers1_batchnorm3_gamma", 
      "attrs": {
        "__dtype__": "0", 
        "__init__": "ones", 
        "__lr_mult__": "1.0", 
        "__shape__": "(64,)", 
        "__storage_type__": "0", 
        "__wd_mult__": "1.0"
      }, 
      "inputs": []
    }, 
    {
      "op": "null", 
      "name": "east0_resnetv1d_layers1_batchnorm3_beta", 
      "attrs": {
        "__dtype__": "0", 
        "__init__": "zeros", 
        "__lr_mult__": "1.0", 
        "__shape__": "(64,)", 
        "__storage_type__": "0", 
        "__wd_mult__": "1.0"
      }, 
      "inputs": []
    }, 
    {
      "op": "null", 
      "name": "east0_resnetv1d_layers1_batchnorm3_running_mean", 
      "attrs": {
        "__dtype__": "0", 
        "__init__": "zeros", 
        "__lr_mult__": "1.0", 
        "__shape__": "(64,)", 
        "__storage_type__": "0", 
        "__wd_mult__": "1.0"
      }, 
      "inputs": []
    }, 
    {
      "op": "null", 
      "name": "east0_resnetv1d_layers1_batchnorm3_running_var", 
      "attrs": {
        "__dtype__": "0", 
        "__init__": "ones", 
        "__lr_mult__": "1.0", 
        "__shape__": "(64,)", 
        "__storage_type__": "0", 
        "__wd_mult__": "1.0"
      }, 
      "inputs": []
    }, 
    {
      "op": "BatchNorm", 
      "name": "east0_resnetv1d_layers1_batchnorm3_fwd", 
      "attrs": {
        "axis": "1", 
        "eps": "1e-05", 
        "fix_gamma": "False", 
        "momentum": "0.9", 
        "use_global_stats": "False"
      }, 
      "inputs": [[61, 0, 0], [62, 0, 0], [63, 0, 0], [64, 0, 1], [65, 0, 1]]
    }, 
    {
      "op": "Activation", 
      "name": "east0_resnetv1d_layers1_relu3_fwd", 
      "attrs": {"act_type": "relu"}, 
      "inputs": [[66, 0, 0]]
    }, 
    {
      "op": "null", 
      "name": "east0_resnetv1d_layers1_conv4_weight", 
      "attrs": {
        "__dtype__": "0", 
        "__lr_mult__": "1.0", 
        "__shape__": "(64, 0, 3, 3)", 
        "__storage_type__": "0", 
        "__wd_mult__": "1.0"
      }, 
      "inputs": []
    }, 
    {
      "op": "Convolution", 
      "name": "east0_resnetv1d_layers1_conv4_fwd", 
      "attrs": {
        "dilate": "(1, 1)", 
        "kernel": "(3, 3)", 
        "layout": "NCHW", 
        "no_bias": "True", 
        "num_filter": "64", 
        "num_group": "1", 
        "pad": "(1, 1)", 
        "stride": "(1, 1)"
      }, 
      "inputs": [[67, 0, 0], [68, 0, 0]]
    }, 
    {
      "op": "null", 
      "name": "east0_resnetv1d_layers1_batchnorm4_gamma", 
      "attrs": {
        "__dtype__": "0", 
        "__init__": "ones", 
        "__lr_mult__": "1.0", 
        "__shape__": "(64,)", 
        "__storage_type__": "0", 
        "__wd_mult__": "1.0"
      }, 
      "inputs": []
    }, 
    {
      "op": "null", 
      "name": "east0_resnetv1d_layers1_batchnorm4_beta", 
      "attrs": {
        "__dtype__": "0", 
        "__init__": "zeros", 
        "__lr_mult__": "1.0", 
        "__shape__": "(64,)", 
        "__storage_type__": "0", 
        "__wd_mult__": "1.0"
      }, 
      "inputs": []
    }, 
    {
      "op": "null", 
      "name": "east0_resnetv1d_layers1_batchnorm4_running_mean", 
      "attrs": {
        "__dtype__": "0", 
        "__init__": "zeros", 
        "__lr_mult__": "1.0", 
        "__shape__": "(64,)", 
        "__storage_type__": "0", 
        "__wd_mult__": "1.0"
      }, 
      "inputs": []
    }, 
    {
      "op": "null", 
      "name": "east0_resnetv1d_layers1_batchnorm4_running_var", 
      "attrs": {
        "__dtype__": "0", 
        "__init__": "ones", 
        "__lr_mult__": "1.0", 
        "__shape__": "(64,)", 
        "__storage_type__": "0", 
        "__wd_mult__": "1.0"
      }, 
      "inputs": []
    }, 
    {
      "op": "BatchNorm", 
      "name": "east0_resnetv1d_layers1_batchnorm4_fwd", 
      "attrs": {
        "axis": "1", 
        "eps": "1e-05", 
        "fix_gamma": "False", 
        "momentum": "0.9", 
        "use_global_stats": "False"
      }, 
      "inputs": [[69, 0, 0], [70, 0, 0], [71, 0, 0], [72, 0, 1], [73, 0, 1]]
    }, 
    {
      "op": "Activation", 
      "name": "east0_resnetv1d_layers1_relu4_fwd", 
      "attrs": {"act_type": "relu"}, 
      "inputs": [[74, 0, 0]]
    }, 
    {
      "op": "null", 
      "name": "east0_resnetv1d_layers1_conv5_weight", 
      "attrs": {
        "__dtype__": "0", 
        "__lr_mult__": "1.0", 
        "__shape__": "(256, 0, 1, 1)", 
        "__storage_type__": "0", 
        "__wd_mult__": "1.0"
      }, 
      "inputs": []
    }, 
    {
      "op": "Convolution", 
      "name": "east0_resnetv1d_layers1_conv5_fwd", 
      "attrs": {
        "dilate": "(1, 1)", 
        "kernel": "(1, 1)", 
        "layout": "NCHW", 
        "no_bias": "True", 
        "num_filter": "256", 
        "num_group": "1", 
        "pad": "(0, 0)", 
        "stride": "(1, 1)"
      }, 
      "inputs": [[75, 0, 0], [76, 0, 0]]
    }, 
    {
      "op": "null", 
      "name": "east0_resnetv1d_layers1_batchnorm5_gamma", 
      "attrs": {
        "__dtype__": "0", 
        "__init__": "ones", 
        "__lr_mult__": "1.0", 
        "__shape__": "(256,)", 
        "__storage_type__": "0", 
        "__wd_mult__": "1.0"
      }, 
      "inputs": []
    }, 
    {
      "op": "null", 
      "name": "east0_resnetv1d_layers1_batchnorm5_beta", 
      "attrs": {
        "__dtype__": "0", 
        "__init__": "zeros", 
        "__lr_mult__": "1.0", 
        "__shape__": "(256,)", 
        "__storage_type__": "0", 
        "__wd_mult__": "1.0"
      }, 
      "inputs": []
    }, 
    {
      "op": "null", 
      "name": "east0_resnetv1d_layers1_batchnorm5_running_mean", 
      "attrs": {
        "__dtype__": "0", 
        "__init__": "zeros", 
        "__lr_mult__": "1.0", 
        "__shape__": "(256,)", 
        "__storage_type__": "0", 
        "__wd_mult__": "1.0"
      }, 
      "inputs": []
    }, 
    {
      "op": "null", 
      "name": "east0_resnetv1d_layers1_batchnorm5_running_var", 
      "attrs": {
        "__dtype__": "0", 
        "__init__": "ones", 
        "__lr_mult__": "1.0", 
        "__shape__": "(256,)", 
        "__storage_type__": "0", 
        "__wd_mult__": "1.0"
      }, 
      "inputs": []
    }, 
    {
      "op": "BatchNorm", 
      "name": "east0_resnetv1d_layers1_batchnorm5_fwd", 
      "attrs": {
        "axis": "1", 
        "eps": "1e-05", 
        "fix_gamma": "False", 
        "momentum": "0.9", 
        "use_global_stats": "False"
      }, 
      "inputs": [[77, 0, 0], [78, 0, 0], [79, 0, 0], [80, 0, 1], [81, 0, 1]]
    }, 
    {
      "op": "elemwise_add", 
      "name": "east0_resnetv1d_layers1_bottleneckv1b1__plus0", 
      "inputs": [[82, 0, 0], [59, 0, 0]]
    }, 
    {
      "op": "Activation", 
      "name": "east0_resnetv1d_layers1_relu5_fwd", 
      "attrs": {"act_type": "relu"}, 
      "inputs": [[83, 0, 0]]
    }, 
    {
      "op": "null", 
      "name": "east0_resnetv1d_layers1_conv6_weight", 
      "attrs": {
        "__dtype__": "0", 
        "__lr_mult__": "1.0", 
        "__shape__": "(64, 0, 1, 1)", 
        "__storage_type__": "0", 
        "__wd_mult__": "1.0"
      }, 
      "inputs": []
    }, 
    {
      "op": "Convolution", 
      "name": "east0_resnetv1d_layers1_conv6_fwd", 
      "attrs": {
        "dilate": "(1, 1)", 
        "kernel": "(1, 1)", 
        "layout": "NCHW", 
        "no_bias": "True", 
        "num_filter": "64", 
        "num_group": "1", 
        "pad": "(0, 0)", 
        "stride": "(1, 1)"
      }, 
      "inputs": [[84, 0, 0], [85, 0, 0]]
    }, 
    {
      "op": "null", 
      "name": "east0_resnetv1d_layers1_batchnorm6_gamma", 
      "attrs": {
        "__dtype__": "0", 
        "__init__": "ones", 
        "__lr_mult__": "1.0", 
        "__shape__": "(64,)", 
        "__storage_type__": "0", 
        "__wd_mult__": "1.0"
      }, 
      "inputs": []
    }, 
    {
      "op": "null", 
      "name": "east0_resnetv1d_layers1_batchnorm6_beta", 
      "attrs": {
        "__dtype__": "0", 
        "__init__": "zeros", 
        "__lr_mult__": "1.0", 
        "__shape__": "(64,)", 
        "__storage_type__": "0", 
        "__wd_mult__": "1.0"
      }, 
      "inputs": []
    }, 
    {
      "op": "null", 
      "name": "east0_resnetv1d_layers1_batchnorm6_running_mean", 
      "attrs": {
        "__dtype__": "0", 
        "__init__": "zeros", 
        "__lr_mult__": "1.0", 
        "__shape__": "(64,)", 
        "__storage_type__": "0", 
        "__wd_mult__": "1.0"
      }, 
      "inputs": []
    }, 
    {
      "op": "null", 
      "name": "east0_resnetv1d_layers1_batchnorm6_running_var", 
      "attrs": {
        "__dtype__": "0", 
        "__init__": "ones", 
        "__lr_mult__": "1.0", 
        "__shape__": "(64,)", 
        "__storage_type__": "0", 
        "__wd_mult__": "1.0"
      }, 
      "inputs": []
    }, 
    {
      "op": "BatchNorm", 
      "name": "east0_resnetv1d_layers1_batchnorm6_fwd", 
      "attrs": {
        "axis": "1", 
        "eps": "1e-05", 
        "fix_gamma": "False", 
        "momentum": "0.9", 
        "use_global_stats": "False"
      }, 
      "inputs": [[86, 0, 0], [87, 0, 0], [88, 0, 0], [89, 0, 1], [90, 0, 1]]
    }, 
    {
      "op": "Activation", 
      "name": "east0_resnetv1d_layers1_relu6_fwd", 
      "attrs": {"act_type": "relu"}, 
      "inputs": [[91, 0, 0]]
    }, 
    {
      "op": "null", 
      "name": "east0_resnetv1d_layers1_conv7_weight", 
      "attrs": {
        "__dtype__": "0", 
        "__lr_mult__": "1.0", 
        "__shape__": "(64, 0, 3, 3)", 
        "__storage_type__": "0", 
        "__wd_mult__": "1.0"
      }, 
      "inputs": []
    }, 
    {
      "op": "Convolution", 
      "name": "east0_resnetv1d_layers1_conv7_fwd", 
      "attrs": {
        "dilate": "(1, 1)", 
        "kernel": "(3, 3)", 
        "layout": "NCHW", 
        "no_bias": "True", 
        "num_filter": "64", 
        "num_group": "1", 
        "pad": "(1, 1)", 
        "stride": "(1, 1)"
      }, 
      "inputs": [[92, 0, 0], [93, 0, 0]]
    }, 
    {
      "op": "null", 
      "name": "east0_resnetv1d_layers1_batchnorm7_gamma", 
      "attrs": {
        "__dtype__": "0", 
        "__init__": "ones", 
        "__lr_mult__": "1.0", 
        "__shape__": "(64,)", 
        "__storage_type__": "0", 
        "__wd_mult__": "1.0"
      }, 
      "inputs": []
    }, 
    {
      "op": "null", 
      "name": "east0_resnetv1d_layers1_batchnorm7_beta", 
      "attrs": {
        "__dtype__": "0", 
        "__init__": "zeros", 
        "__lr_mult__": "1.0", 
        "__shape__": "(64,)", 
        "__storage_type__": "0", 
        "__wd_mult__": "1.0"
      }, 
      "inputs": []
    }, 
    {
      "op": "null", 
      "name": "east0_resnetv1d_layers1_batchnorm7_running_mean", 
      "attrs": {
        "__dtype__": "0", 
        "__init__": "zeros", 
        "__lr_mult__": "1.0", 
        "__shape__": "(64,)", 
        "__storage_type__": "0", 
        "__wd_mult__": "1.0"
      }, 
      "inputs": []
    }, 
    {
      "op": "null", 
      "name": "east0_resnetv1d_layers1_batchnorm7_running_var", 
      "attrs": {
        "__dtype__": "0", 
        "__init__": "ones", 
        "__lr_mult__": "1.0", 
        "__shape__": "(64,)", 
        "__storage_type__": "0", 
        "__wd_mult__": "1.0"
      }, 
      "inputs": []
    }, 
    {
      "op": "BatchNorm", 
      "name": "east0_resnetv1d_layers1_batchnorm7_fwd", 
      "attrs": {
        "axis": "1", 
        "eps": "1e-05", 
        "fix_gamma": "False", 
        "momentum": "0.9", 
        "use_global_stats": "False"
      }, 
      "inputs": [[94, 0, 0], [95, 0, 0], [96, 0, 0], [97, 0, 1], [98, 0, 1]]
    }, 
    {
      "op": "Activation", 
      "name": "east0_resnetv1d_layers1_relu7_fwd", 
      "attrs": {"act_type": "relu"}, 
      "inputs": [[99, 0, 0]]
    }, 
    {
      "op": "null", 
      "name": "east0_resnetv1d_layers1_conv8_weight", 
      "attrs": {
        "__dtype__": "0", 
        "__lr_mult__": "1.0", 
        "__shape__": "(256, 0, 1, 1)", 
        "__storage_type__": "0", 
        "__wd_mult__": "1.0"
      }, 
      "inputs": []
    }, 
    {
      "op": "Convolution", 
      "name": "east0_resnetv1d_layers1_conv8_fwd", 
      "attrs": {
        "dilate": "(1, 1)", 
        "kernel": "(1, 1)", 
        "layout": "NCHW", 
        "no_bias": "True", 
        "num_filter": "256", 
        "num_group": "1", 
        "pad": "(0, 0)", 
        "stride": "(1, 1)"
      }, 
      "inputs": [[100, 0, 0], [101, 0, 0]]
    }, 
    {
      "op": "null", 
      "name": "east0_resnetv1d_layers1_batchnorm8_gamma", 
      "attrs": {
        "__dtype__": "0", 
        "__init__": "ones", 
        "__lr_mult__": "1.0", 
        "__shape__": "(256,)", 
        "__storage_type__": "0", 
        "__wd_mult__": "1.0"
      }, 
      "inputs": []
    }, 
    {
      "op": "null", 
      "name": "east0_resnetv1d_layers1_batchnorm8_beta", 
      "attrs": {
        "__dtype__": "0", 
        "__init__": "zeros", 
        "__lr_mult__": "1.0", 
        "__shape__": "(256,)", 
        "__storage_type__": "0", 
        "__wd_mult__": "1.0"
      }, 
      "inputs": []
    }, 
    {
      "op": "null", 
      "name": "east0_resnetv1d_layers1_batchnorm8_running_mean", 
      "attrs": {
        "__dtype__": "0", 
        "__init__": "zeros", 
        "__lr_mult__": "1.0", 
        "__shape__": "(256,)", 
        "__storage_type__": "0", 
        "__wd_mult__": "1.0"
      }, 
      "inputs": []
    }, 
    {
      "op": "null", 
      "name": "east0_resnetv1d_layers1_batchnorm8_running_var", 
      "attrs": {
        "__dtype__": "0", 
        "__init__": "ones", 
        "__lr_mult__": "1.0", 
        "__shape__": "(256,)", 
        "__storage_type__": "0", 
        "__wd_mult__": "1.0"
      }, 
      "inputs": []
    }, 
    {
      "op": "BatchNorm", 
      "name": "east0_resnetv1d_layers1_batchnorm8_fwd", 
      "attrs": {
        "axis": "1", 
        "eps": "1e-05", 
        "fix_gamma": "False", 
        "momentum": "0.9", 
        "use_global_stats": "False"
      }, 
      "inputs": [[102, 0, 0], [103, 0, 0], [104, 0, 0], [105, 0, 1], [106, 0, 1]]
    }, 
    {
      "op": "elemwise_add", 
      "name": "east0_resnetv1d_layers1_bottleneckv1b2__plus0", 
      "inputs": [[107, 0, 0], [84, 0, 0]]
    }, 
    {
      "op": "Activation", 
      "name": "east0_resnetv1d_layers1_relu8_fwd", 
      "attrs": {"act_type": "relu"}, 
      "inputs": [[108, 0, 0]]
    }, 
    {
      "op": "null", 
      "name": "east0_resnetv1d_layers2_conv0_weight", 
      "attrs": {
        "__dtype__": "0", 
        "__lr_mult__": "1.0", 
        "__shape__": "(128, 0, 1, 1)", 
        "__storage_type__": "0", 
        "__wd_mult__": "1.0"
      }, 
      "inputs": []
    }, 
    {
      "op": "Convolution", 
      "name": "east0_resnetv1d_layers2_conv0_fwd", 
      "attrs": {
        "dilate": "(1, 1)", 
        "kernel": "(1, 1)", 
        "layout": "NCHW", 
        "no_bias": "True", 
        "num_filter": "128", 
        "num_group": "1", 
        "pad": "(0, 0)", 
        "stride": "(1, 1)"
      }, 
      "inputs": [[109, 0, 0], [110, 0, 0]]
    }, 
    {
      "op": "null", 
      "name": "east0_resnetv1d_layers2_batchnorm0_gamma", 
      "attrs": {
        "__dtype__": "0", 
        "__init__": "ones", 
        "__lr_mult__": "1.0", 
        "__shape__": "(128,)", 
        "__storage_type__": "0", 
        "__wd_mult__": "1.0"
      }, 
      "inputs": []
    }, 
    {
      "op": "null", 
      "name": "east0_resnetv1d_layers2_batchnorm0_beta", 
      "attrs": {
        "__dtype__": "0", 
        "__init__": "zeros", 
        "__lr_mult__": "1.0", 
        "__shape__": "(128,)", 
        "__storage_type__": "0", 
        "__wd_mult__": "1.0"
      }, 
      "inputs": []
    }, 
    {
      "op": "null", 
      "name": "east0_resnetv1d_layers2_batchnorm0_running_mean", 
      "attrs": {
        "__dtype__": "0", 
        "__init__": "zeros", 
        "__lr_mult__": "1.0", 
        "__shape__": "(128,)", 
        "__storage_type__": "0", 
        "__wd_mult__": "1.0"
      }, 
      "inputs": []
    }, 
    {
      "op": "null", 
      "name": "east0_resnetv1d_layers2_batchnorm0_running_var", 
      "attrs": {
        "__dtype__": "0", 
        "__init__": "ones", 
        "__lr_mult__": "1.0", 
        "__shape__": "(128,)", 
        "__storage_type__": "0", 
        "__wd_mult__": "1.0"
      }, 
      "inputs": []
    }, 
    {
      "op": "BatchNorm", 
      "name": "east0_resnetv1d_layers2_batchnorm0_fwd", 
      "attrs": {
        "axis": "1", 
        "eps": "1e-05", 
        "fix_gamma": "False", 
        "momentum": "0.9", 
        "use_global_stats": "False"
      }, 
      "inputs": [[111, 0, 0], [112, 0, 0], [113, 0, 0], [114, 0, 1], [115, 0, 1]]
    }, 
    {
      "op": "Activation", 
      "name": "east0_resnetv1d_layers2_relu0_fwd", 
      "attrs": {"act_type": "relu"}, 
      "inputs": [[116, 0, 0]]
    }, 
    {
      "op": "null", 
      "name": "east0_resnetv1d_layers2_conv1_weight", 
      "attrs": {
        "__dtype__": "0", 
        "__lr_mult__": "1.0", 
        "__shape__": "(128, 0, 3, 3)", 
        "__storage_type__": "0", 
        "__wd_mult__": "1.0"
      }, 
      "inputs": []
    }, 
    {
      "op": "Convolution", 
      "name": "east0_resnetv1d_layers2_conv1_fwd", 
      "attrs": {
        "dilate": "(1, 1)", 
        "kernel": "(3, 3)", 
        "layout": "NCHW", 
        "no_bias": "True", 
        "num_filter": "128", 
        "num_group": "1", 
        "pad": "(1, 1)", 
        "stride": "(2, 2)"
      }, 
      "inputs": [[117, 0, 0], [118, 0, 0]]
    }, 
    {
      "op": "null", 
      "name": "east0_resnetv1d_layers2_batchnorm1_gamma", 
      "attrs": {
        "__dtype__": "0", 
        "__init__": "ones", 
        "__lr_mult__": "1.0", 
        "__shape__": "(128,)", 
        "__storage_type__": "0", 
        "__wd_mult__": "1.0"
      }, 
      "inputs": []
    }, 
    {
      "op": "null", 
      "name": "east0_resnetv1d_layers2_batchnorm1_beta", 
      "attrs": {
        "__dtype__": "0", 
        "__init__": "zeros", 
        "__lr_mult__": "1.0", 
        "__shape__": "(128,)", 
        "__storage_type__": "0", 
        "__wd_mult__": "1.0"
      }, 
      "inputs": []
    }, 
    {
      "op": "null", 
      "name": "east0_resnetv1d_layers2_batchnorm1_running_mean", 
      "attrs": {
        "__dtype__": "0", 
        "__init__": "zeros", 
        "__lr_mult__": "1.0", 
        "__shape__": "(128,)", 
        "__storage_type__": "0", 
        "__wd_mult__": "1.0"
      }, 
      "inputs": []
    }, 
    {
      "op": "null", 
      "name": "east0_resnetv1d_layers2_batchnorm1_running_var", 
      "attrs": {
        "__dtype__": "0", 
        "__init__": "ones", 
        "__lr_mult__": "1.0", 
        "__shape__": "(128,)", 
        "__storage_type__": "0", 
        "__wd_mult__": "1.0"
      }, 
      "inputs": []
    }, 
    {
      "op": "BatchNorm", 
      "name": "east0_resnetv1d_layers2_batchnorm1_fwd", 
      "attrs": {
        "axis": "1", 
        "eps": "1e-05", 
        "fix_gamma": "False", 
        "momentum": "0.9", 
        "use_global_stats": "False"
      }, 
      "inputs": [[119, 0, 0], [120, 0, 0], [121, 0, 0], [122, 0, 1], [123, 0, 1]]
    }, 
    {
      "op": "Activation", 
      "name": "east0_resnetv1d_layers2_relu1_fwd", 
      "attrs": {"act_type": "relu"}, 
      "inputs": [[124, 0, 0]]
    }, 
    {
      "op": "null", 
      "name": "east0_resnetv1d_layers2_conv2_weight", 
      "attrs": {
        "__dtype__": "0", 
        "__lr_mult__": "1.0", 
        "__shape__": "(512, 0, 1, 1)", 
        "__storage_type__": "0", 
        "__wd_mult__": "1.0"
      }, 
      "inputs": []
    }, 
    {
      "op": "Convolution", 
      "name": "east0_resnetv1d_layers2_conv2_fwd", 
      "attrs": {
        "dilate": "(1, 1)", 
        "kernel": "(1, 1)", 
        "layout": "NCHW", 
        "no_bias": "True", 
        "num_filter": "512", 
        "num_group": "1", 
        "pad": "(0, 0)", 
        "stride": "(1, 1)"
      }, 
      "inputs": [[125, 0, 0], [126, 0, 0]]
    }, 
    {
      "op": "null", 
      "name": "east0_resnetv1d_layers2_batchnorm2_gamma", 
      "attrs": {
        "__dtype__": "0", 
        "__init__": "ones", 
        "__lr_mult__": "1.0", 
        "__shape__": "(512,)", 
        "__storage_type__": "0", 
        "__wd_mult__": "1.0"
      }, 
      "inputs": []
    }, 
    {
      "op": "null", 
      "name": "east0_resnetv1d_layers2_batchnorm2_beta", 
      "attrs": {
        "__dtype__": "0", 
        "__init__": "zeros", 
        "__lr_mult__": "1.0", 
        "__shape__": "(512,)", 
        "__storage_type__": "0", 
        "__wd_mult__": "1.0"
      }, 
      "inputs": []
    }, 
    {
      "op": "null", 
      "name": "east0_resnetv1d_layers2_batchnorm2_running_mean", 
      "attrs": {
        "__dtype__": "0", 
        "__init__": "zeros", 
        "__lr_mult__": "1.0", 
        "__shape__": "(512,)", 
        "__storage_type__": "0", 
        "__wd_mult__": "1.0"
      }, 
      "inputs": []
    }, 
    {
      "op": "null", 
      "name": "east0_resnetv1d_layers2_batchnorm2_running_var", 
      "attrs": {
        "__dtype__": "0", 
        "__init__": "ones", 
        "__lr_mult__": "1.0", 
        "__shape__": "(512,)", 
        "__storage_type__": "0", 
        "__wd_mult__": "1.0"
      }, 
      "inputs": []
    }, 
    {
      "op": "BatchNorm", 
      "name": "east0_resnetv1d_layers2_batchnorm2_fwd", 
      "attrs": {
        "axis": "1", 
        "eps": "1e-05", 
        "fix_gamma": "False", 
        "momentum": "0.9", 
        "use_global_stats": "False"
      }, 
      "inputs": [[127, 0, 0], [128, 0, 0], [129, 0, 0], [130, 0, 1], [131, 0, 1]]
    }, 
    {
      "op": "Pooling", 
      "name": "east0_resnetv1d_down2_pool0_fwd", 
      "attrs": {
        "count_include_pad": "False", 
        "global_pool": "False", 
        "kernel": "(2, 2)", 
        "pad": "(0, 0)", 
        "pool_type": "avg", 
        "pooling_convention": "full", 
        "stride": "(2, 2)"
      }, 
      "inputs": [[109, 0, 0]]
    }, 
    {
      "op": "null", 
      "name": "east0_resnetv1d_down2_conv0_weight", 
      "attrs": {
        "__dtype__": "0", 
        "__lr_mult__": "1.0", 
        "__shape__": "(512, 0, 1, 1)", 
        "__storage_type__": "0", 
        "__wd_mult__": "1.0"
      }, 
      "inputs": []
    }, 
    {
      "op": "Convolution", 
      "name": "east0_resnetv1d_down2_conv0_fwd", 
      "attrs": {
        "dilate": "(1, 1)", 
        "kernel": "(1, 1)", 
        "layout": "NCHW", 
        "no_bias": "True", 
        "num_filter": "512", 
        "num_group": "1", 
        "pad": "(0, 0)", 
        "stride": "(1, 1)"
      }, 
      "inputs": [[133, 0, 0], [134, 0, 0]]
    }, 
    {
      "op": "null", 
      "name": "east0_resnetv1d_down2_batchnorm0_gamma", 
      "attrs": {
        "__dtype__": "0", 
        "__init__": "ones", 
        "__lr_mult__": "1.0", 
        "__shape__": "(512,)", 
        "__storage_type__": "0", 
        "__wd_mult__": "1.0"
      }, 
      "inputs": []
    }, 
    {
      "op": "null", 
      "name": "east0_resnetv1d_down2_batchnorm0_beta", 
      "attrs": {
        "__dtype__": "0", 
        "__init__": "zeros", 
        "__lr_mult__": "1.0", 
        "__shape__": "(512,)", 
        "__storage_type__": "0", 
        "__wd_mult__": "1.0"
      }, 
      "inputs": []
    }, 
    {
      "op": "null", 
      "name": "east0_resnetv1d_down2_batchnorm0_running_mean", 
      "attrs": {
        "__dtype__": "0", 
        "__init__": "zeros", 
        "__lr_mult__": "1.0", 
        "__shape__": "(512,)", 
        "__storage_type__": "0", 
        "__wd_mult__": "1.0"
      }, 
      "inputs": []
    }, 
    {
      "op": "null", 
      "name": "east0_resnetv1d_down2_batchnorm0_running_var", 
      "attrs": {
        "__dtype__": "0", 
        "__init__": "ones", 
        "__lr_mult__": "1.0", 
        "__shape__": "(512,)", 
        "__storage_type__": "0", 
        "__wd_mult__": "1.0"
      }, 
      "inputs": []
    }, 
    {
      "op": "BatchNorm", 
      "name": "east0_resnetv1d_down2_batchnorm0_fwd", 
      "attrs": {
        "axis": "1", 
        "eps": "1e-05", 
        "fix_gamma": "False", 
        "momentum": "0.9", 
        "use_global_stats": "False"
      }, 
      "inputs": [[135, 0, 0], [136, 0, 0], [137, 0, 0], [138, 0, 1], [139, 0, 1]]
    }, 
    {
      "op": "elemwise_add", 
      "name": "east0_resnetv1d_layers2_bottleneckv1b0__plus0", 
      "inputs": [[132, 0, 0], [140, 0, 0]]
    }, 
    {
      "op": "Activation", 
      "name": "east0_resnetv1d_layers2_relu2_fwd", 
      "attrs": {"act_type": "relu"}, 
      "inputs": [[141, 0, 0]]
    }, 
    {
      "op": "null", 
      "name": "east0_resnetv1d_layers2_conv3_weight", 
      "attrs": {
        "__dtype__": "0", 
        "__lr_mult__": "1.0", 
        "__shape__": "(128, 0, 1, 1)", 
        "__storage_type__": "0", 
        "__wd_mult__": "1.0"
      }, 
      "inputs": []
    }, 
    {
      "op": "Convolution", 
      "name": "east0_resnetv1d_layers2_conv3_fwd", 
      "attrs": {
        "dilate": "(1, 1)", 
        "kernel": "(1, 1)", 
        "layout": "NCHW", 
        "no_bias": "True", 
        "num_filter": "128", 
        "num_group": "1", 
        "pad": "(0, 0)", 
        "stride": "(1, 1)"
      }, 
      "inputs": [[142, 0, 0], [143, 0, 0]]
    }, 
    {
      "op": "null", 
      "name": "east0_resnetv1d_layers2_batchnorm3_gamma", 
      "attrs": {
        "__dtype__": "0", 
        "__init__": "ones", 
        "__lr_mult__": "1.0", 
        "__shape__": "(128,)", 
        "__storage_type__": "0", 
        "__wd_mult__": "1.0"
      }, 
      "inputs": []
    }, 
    {
      "op": "null", 
      "name": "east0_resnetv1d_layers2_batchnorm3_beta", 
      "attrs": {
        "__dtype__": "0", 
        "__init__": "zeros", 
        "__lr_mult__": "1.0", 
        "__shape__": "(128,)", 
        "__storage_type__": "0", 
        "__wd_mult__": "1.0"
      }, 
      "inputs": []
    }, 
    {
      "op": "null", 
      "name": "east0_resnetv1d_layers2_batchnorm3_running_mean", 
      "attrs": {
        "__dtype__": "0", 
        "__init__": "zeros", 
        "__lr_mult__": "1.0", 
        "__shape__": "(128,)", 
        "__storage_type__": "0", 
        "__wd_mult__": "1.0"
      }, 
      "inputs": []
    }, 
    {
      "op": "null", 
      "name": "east0_resnetv1d_layers2_batchnorm3_running_var", 
      "attrs": {
        "__dtype__": "0", 
        "__init__": "ones", 
        "__lr_mult__": "1.0", 
        "__shape__": "(128,)", 
        "__storage_type__": "0", 
        "__wd_mult__": "1.0"
      }, 
      "inputs": []
    }, 
    {
      "op": "BatchNorm", 
      "name": "east0_resnetv1d_layers2_batchnorm3_fwd", 
      "attrs": {
        "axis": "1", 
        "eps": "1e-05", 
        "fix_gamma": "False", 
        "momentum": "0.9", 
        "use_global_stats": "False"
      }, 
      "inputs": [[144, 0, 0], [145, 0, 0], [146, 0, 0], [147, 0, 1], [148, 0, 1]]
    }, 
    {
      "op": "Activation", 
      "name": "east0_resnetv1d_layers2_relu3_fwd", 
      "attrs": {"act_type": "relu"}, 
      "inputs": [[149, 0, 0]]
    }, 
    {
      "op": "null", 
      "name": "east0_resnetv1d_layers2_conv4_weight", 
      "attrs": {
        "__dtype__": "0", 
        "__lr_mult__": "1.0", 
        "__shape__": "(128, 0, 3, 3)", 
        "__storage_type__": "0", 
        "__wd_mult__": "1.0"
      }, 
      "inputs": []
    }, 
    {
      "op": "Convolution", 
      "name": "east0_resnetv1d_layers2_conv4_fwd", 
      "attrs": {
        "dilate": "(1, 1)", 
        "kernel": "(3, 3)", 
        "layout": "NCHW", 
        "no_bias": "True", 
        "num_filter": "128", 
        "num_group": "1", 
        "pad": "(1, 1)", 
        "stride": "(1, 1)"
      }, 
      "inputs": [[150, 0, 0], [151, 0, 0]]
    }, 
    {
      "op": "null", 
      "name": "east0_resnetv1d_layers2_batchnorm4_gamma", 
      "attrs": {
        "__dtype__": "0", 
        "__init__": "ones", 
        "__lr_mult__": "1.0", 
        "__shape__": "(128,)", 
        "__storage_type__": "0", 
        "__wd_mult__": "1.0"
      }, 
      "inputs": []
    }, 
    {
      "op": "null", 
      "name": "east0_resnetv1d_layers2_batchnorm4_beta", 
      "attrs": {
        "__dtype__": "0", 
        "__init__": "zeros", 
        "__lr_mult__": "1.0", 
        "__shape__": "(128,)", 
        "__storage_type__": "0", 
        "__wd_mult__": "1.0"
      }, 
      "inputs": []
    }, 
    {
      "op": "null", 
      "name": "east0_resnetv1d_layers2_batchnorm4_running_mean", 
      "attrs": {
        "__dtype__": "0", 
        "__init__": "zeros", 
        "__lr_mult__": "1.0", 
        "__shape__": "(128,)", 
        "__storage_type__": "0", 
        "__wd_mult__": "1.0"
      }, 
      "inputs": []
    }, 
    {
      "op": "null", 
      "name": "east0_resnetv1d_layers2_batchnorm4_running_var", 
      "attrs": {
        "__dtype__": "0", 
        "__init__": "ones", 
        "__lr_mult__": "1.0", 
        "__shape__": "(128,)", 
        "__storage_type__": "0", 
        "__wd_mult__": "1.0"
      }, 
      "inputs": []
    }, 
    {
      "op": "BatchNorm", 
      "name": "east0_resnetv1d_layers2_batchnorm4_fwd", 
      "attrs": {
        "axis": "1", 
        "eps": "1e-05", 
        "fix_gamma": "False", 
        "momentum": "0.9", 
        "use_global_stats": "False"
      }, 
      "inputs": [[152, 0, 0], [153, 0, 0], [154, 0, 0], [155, 0, 1], [156, 0, 1]]
    }, 
    {
      "op": "Activation", 
      "name": "east0_resnetv1d_layers2_relu4_fwd", 
      "attrs": {"act_type": "relu"}, 
      "inputs": [[157, 0, 0]]
    }, 
    {
      "op": "null", 
      "name": "east0_resnetv1d_layers2_conv5_weight", 
      "attrs": {
        "__dtype__": "0", 
        "__lr_mult__": "1.0", 
        "__shape__": "(512, 0, 1, 1)", 
        "__storage_type__": "0", 
        "__wd_mult__": "1.0"
      }, 
      "inputs": []
    }, 
    {
      "op": "Convolution", 
      "name": "east0_resnetv1d_layers2_conv5_fwd", 
      "attrs": {
        "dilate": "(1, 1)", 
        "kernel": "(1, 1)", 
        "layout": "NCHW", 
        "no_bias": "True", 
        "num_filter": "512", 
        "num_group": "1", 
        "pad": "(0, 0)", 
        "stride": "(1, 1)"
      }, 
      "inputs": [[158, 0, 0], [159, 0, 0]]
    }, 
    {
      "op": "null", 
      "name": "east0_resnetv1d_layers2_batchnorm5_gamma", 
      "attrs": {
        "__dtype__": "0", 
        "__init__": "ones", 
        "__lr_mult__": "1.0", 
        "__shape__": "(512,)", 
        "__storage_type__": "0", 
        "__wd_mult__": "1.0"
      }, 
      "inputs": []
    }, 
    {
      "op": "null", 
      "name": "east0_resnetv1d_layers2_batchnorm5_beta", 
      "attrs": {
        "__dtype__": "0", 
        "__init__": "zeros", 
        "__lr_mult__": "1.0", 
        "__shape__": "(512,)", 
        "__storage_type__": "0", 
        "__wd_mult__": "1.0"
      }, 
      "inputs": []
    }, 
    {
      "op": "null", 
      "name": "east0_resnetv1d_layers2_batchnorm5_running_mean", 
      "attrs": {
        "__dtype__": "0", 
        "__init__": "zeros", 
        "__lr_mult__": "1.0", 
        "__shape__": "(512,)", 
        "__storage_type__": "0", 
        "__wd_mult__": "1.0"
      }, 
      "inputs": []
    }, 
    {
      "op": "null", 
      "name": "east0_resnetv1d_layers2_batchnorm5_running_var", 
      "attrs": {
        "__dtype__": "0", 
        "__init__": "ones", 
        "__lr_mult__": "1.0", 
        "__shape__": "(512,)", 
        "__storage_type__": "0", 
        "__wd_mult__": "1.0"
      }, 
      "inputs": []
    }, 
    {
      "op": "BatchNorm", 
      "name": "east0_resnetv1d_layers2_batchnorm5_fwd", 
      "attrs": {
        "axis": "1", 
        "eps": "1e-05", 
        "fix_gamma": "False", 
        "momentum": "0.9", 
        "use_global_stats": "False"
      }, 
      "inputs": [[160, 0, 0], [161, 0, 0], [162, 0, 0], [163, 0, 1], [164, 0, 1]]
    }, 
    {
      "op": "elemwise_add", 
      "name": "east0_resnetv1d_layers2_bottleneckv1b1__plus0", 
      "inputs": [[165, 0, 0], [142, 0, 0]]
    }, 
    {
      "op": "Activation", 
      "name": "east0_resnetv1d_layers2_relu5_fwd", 
      "attrs": {"act_type": "relu"}, 
      "inputs": [[166, 0, 0]]
    }, 
    {
      "op": "null", 
      "name": "east0_resnetv1d_layers2_conv6_weight", 
      "attrs": {
        "__dtype__": "0", 
        "__lr_mult__": "1.0", 
        "__shape__": "(128, 0, 1, 1)", 
        "__storage_type__": "0", 
        "__wd_mult__": "1.0"
      }, 
      "inputs": []
    }, 
    {
      "op": "Convolution", 
      "name": "east0_resnetv1d_layers2_conv6_fwd", 
      "attrs": {
        "dilate": "(1, 1)", 
        "kernel": "(1, 1)", 
        "layout": "NCHW", 
        "no_bias": "True", 
        "num_filter": "128", 
        "num_group": "1", 
        "pad": "(0, 0)", 
        "stride": "(1, 1)"
      }, 
      "inputs": [[167, 0, 0], [168, 0, 0]]
    }, 
    {
      "op": "null", 
      "name": "east0_resnetv1d_layers2_batchnorm6_gamma", 
      "attrs": {
        "__dtype__": "0", 
        "__init__": "ones", 
        "__lr_mult__": "1.0", 
        "__shape__": "(128,)", 
        "__storage_type__": "0", 
        "__wd_mult__": "1.0"
      }, 
      "inputs": []
    }, 
    {
      "op": "null", 
      "name": "east0_resnetv1d_layers2_batchnorm6_beta", 
      "attrs": {
        "__dtype__": "0", 
        "__init__": "zeros", 
        "__lr_mult__": "1.0", 
        "__shape__": "(128,)", 
        "__storage_type__": "0", 
        "__wd_mult__": "1.0"
      }, 
      "inputs": []
    }, 
    {
      "op": "null", 
      "name": "east0_resnetv1d_layers2_batchnorm6_running_mean", 
      "attrs": {
        "__dtype__": "0", 
        "__init__": "zeros", 
        "__lr_mult__": "1.0", 
        "__shape__": "(128,)", 
        "__storage_type__": "0", 
        "__wd_mult__": "1.0"
      }, 
      "inputs": []
    }, 
    {
      "op": "null", 
      "name": "east0_resnetv1d_layers2_batchnorm6_running_var", 
      "attrs": {
        "__dtype__": "0", 
        "__init__": "ones", 
        "__lr_mult__": "1.0", 
        "__shape__": "(128,)", 
        "__storage_type__": "0", 
        "__wd_mult__": "1.0"
      }, 
      "inputs": []
    }, 
    {
      "op": "BatchNorm", 
      "name": "east0_resnetv1d_layers2_batchnorm6_fwd", 
      "attrs": {
        "axis": "1", 
        "eps": "1e-05", 
        "fix_gamma": "False", 
        "momentum": "0.9", 
        "use_global_stats": "False"
      }, 
      "inputs": [[169, 0, 0], [170, 0, 0], [171, 0, 0], [172, 0, 1], [173, 0, 1]]
    }, 
    {
      "op": "Activation", 
      "name": "east0_resnetv1d_layers2_relu6_fwd", 
      "attrs": {"act_type": "relu"}, 
      "inputs": [[174, 0, 0]]
    }, 
    {
      "op": "null", 
      "name": "east0_resnetv1d_layers2_conv7_weight", 
      "attrs": {
        "__dtype__": "0", 
        "__lr_mult__": "1.0", 
        "__shape__": "(128, 0, 3, 3)", 
        "__storage_type__": "0", 
        "__wd_mult__": "1.0"
      }, 
      "inputs": []
    }, 
    {
      "op": "Convolution", 
      "name": "east0_resnetv1d_layers2_conv7_fwd", 
      "attrs": {
        "dilate": "(1, 1)", 
        "kernel": "(3, 3)", 
        "layout": "NCHW", 
        "no_bias": "True", 
        "num_filter": "128", 
        "num_group": "1", 
        "pad": "(1, 1)", 
        "stride": "(1, 1)"
      }, 
      "inputs": [[175, 0, 0], [176, 0, 0]]
    }, 
    {
      "op": "null", 
      "name": "east0_resnetv1d_layers2_batchnorm7_gamma", 
      "attrs": {
        "__dtype__": "0", 
        "__init__": "ones", 
        "__lr_mult__": "1.0", 
        "__shape__": "(128,)", 
        "__storage_type__": "0", 
        "__wd_mult__": "1.0"
      }, 
      "inputs": []
    }, 
    {
      "op": "null", 
      "name": "east0_resnetv1d_layers2_batchnorm7_beta", 
      "attrs": {
        "__dtype__": "0", 
        "__init__": "zeros", 
        "__lr_mult__": "1.0", 
        "__shape__": "(128,)", 
        "__storage_type__": "0", 
        "__wd_mult__": "1.0"
      }, 
      "inputs": []
    }, 
    {
      "op": "null", 
      "name": "east0_resnetv1d_layers2_batchnorm7_running_mean", 
      "attrs": {
        "__dtype__": "0", 
        "__init__": "zeros", 
        "__lr_mult__": "1.0", 
        "__shape__": "(128,)", 
        "__storage_type__": "0", 
        "__wd_mult__": "1.0"
      }, 
      "inputs": []
    }, 
    {
      "op": "null", 
      "name": "east0_resnetv1d_layers2_batchnorm7_running_var", 
      "attrs": {
        "__dtype__": "0", 
        "__init__": "ones", 
        "__lr_mult__": "1.0", 
        "__shape__": "(128,)", 
        "__storage_type__": "0", 
        "__wd_mult__": "1.0"
      }, 
      "inputs": []
    }, 
    {
      "op": "BatchNorm", 
      "name": "east0_resnetv1d_layers2_batchnorm7_fwd", 
      "attrs": {
        "axis": "1", 
        "eps": "1e-05", 
        "fix_gamma": "False", 
        "momentum": "0.9", 
        "use_global_stats": "False"
      }, 
      "inputs": [[177, 0, 0], [178, 0, 0], [179, 0, 0], [180, 0, 1], [181, 0, 1]]
    }, 
    {
      "op": "Activation", 
      "name": "east0_resnetv1d_layers2_relu7_fwd", 
      "attrs": {"act_type": "relu"}, 
      "inputs": [[182, 0, 0]]
    }, 
    {
      "op": "null", 
      "name": "east0_resnetv1d_layers2_conv8_weight", 
      "attrs": {
        "__dtype__": "0", 
        "__lr_mult__": "1.0", 
        "__shape__": "(512, 0, 1, 1)", 
        "__storage_type__": "0", 
        "__wd_mult__": "1.0"
      }, 
      "inputs": []
    }, 
    {
      "op": "Convolution", 
      "name": "east0_resnetv1d_layers2_conv8_fwd", 
      "attrs": {
        "dilate": "(1, 1)", 
        "kernel": "(1, 1)", 
        "layout": "NCHW", 
        "no_bias": "True", 
        "num_filter": "512", 
        "num_group": "1", 
        "pad": "(0, 0)", 
        "stride": "(1, 1)"
      }, 
      "inputs": [[183, 0, 0], [184, 0, 0]]
    }, 
    {
      "op": "null", 
      "name": "east0_resnetv1d_layers2_batchnorm8_gamma", 
      "attrs": {
        "__dtype__": "0", 
        "__init__": "ones", 
        "__lr_mult__": "1.0", 
        "__shape__": "(512,)", 
        "__storage_type__": "0", 
        "__wd_mult__": "1.0"
      }, 
      "inputs": []
    }, 
    {
      "op": "null", 
      "name": "east0_resnetv1d_layers2_batchnorm8_beta", 
      "attrs": {
        "__dtype__": "0", 
        "__init__": "zeros", 
        "__lr_mult__": "1.0", 
        "__shape__": "(512,)", 
        "__storage_type__": "0", 
        "__wd_mult__": "1.0"
      }, 
      "inputs": []
    }, 
    {
      "op": "null", 
      "name": "east0_resnetv1d_layers2_batchnorm8_running_mean", 
      "attrs": {
        "__dtype__": "0", 
        "__init__": "zeros", 
        "__lr_mult__": "1.0", 
        "__shape__": "(512,)", 
        "__storage_type__": "0", 
        "__wd_mult__": "1.0"
      }, 
      "inputs": []
    }, 
    {
      "op": "null", 
      "name": "east0_resnetv1d_layers2_batchnorm8_running_var", 
      "attrs": {
        "__dtype__": "0", 
        "__init__": "ones", 
        "__lr_mult__": "1.0", 
        "__shape__": "(512,)", 
        "__storage_type__": "0", 
        "__wd_mult__": "1.0"
      }, 
      "inputs": []
    }, 
    {
      "op": "BatchNorm", 
      "name": "east0_resnetv1d_layers2_batchnorm8_fwd", 
      "attrs": {
        "axis": "1", 
        "eps": "1e-05", 
        "fix_gamma": "False", 
        "momentum": "0.9", 
        "use_global_stats": "False"
      }, 
      "inputs": [[185, 0, 0], [186, 0, 0], [187, 0, 0], [188, 0, 1], [189, 0, 1]]
    }, 
    {
      "op": "elemwise_add", 
      "name": "east0_resnetv1d_layers2_bottleneckv1b2__plus0", 
      "inputs": [[190, 0, 0], [167, 0, 0]]
    }, 
    {
      "op": "Activation", 
      "name": "east0_resnetv1d_layers2_relu8_fwd", 
      "attrs": {"act_type": "relu"}, 
      "inputs": [[191, 0, 0]]
    }, 
    {
      "op": "null", 
      "name": "east0_resnetv1d_layers2_conv9_weight", 
      "attrs": {
        "__dtype__": "0", 
        "__lr_mult__": "1.0", 
        "__shape__": "(128, 0, 1, 1)", 
        "__storage_type__": "0", 
        "__wd_mult__": "1.0"
      }, 
      "inputs": []
    }, 
    {
      "op": "Convolution", 
      "name": "east0_resnetv1d_layers2_conv9_fwd", 
      "attrs": {
        "dilate": "(1, 1)", 
        "kernel": "(1, 1)", 
        "layout": "NCHW", 
        "no_bias": "True", 
        "num_filter": "128", 
        "num_group": "1", 
        "pad": "(0, 0)", 
        "stride": "(1, 1)"
      }, 
      "inputs": [[192, 0, 0], [193, 0, 0]]
    }, 
    {
      "op": "null", 
      "name": "east0_resnetv1d_layers2_batchnorm9_gamma", 
      "attrs": {
        "__dtype__": "0", 
        "__init__": "ones", 
        "__lr_mult__": "1.0", 
        "__shape__": "(128,)", 
        "__storage_type__": "0", 
        "__wd_mult__": "1.0"
      }, 
      "inputs": []
    }, 
    {
      "op": "null", 
      "name": "east0_resnetv1d_layers2_batchnorm9_beta", 
      "attrs": {
        "__dtype__": "0", 
        "__init__": "zeros", 
        "__lr_mult__": "1.0", 
        "__shape__": "(128,)", 
        "__storage_type__": "0", 
        "__wd_mult__": "1.0"
      }, 
      "inputs": []
    }, 
    {
      "op": "null", 
      "name": "east0_resnetv1d_layers2_batchnorm9_running_mean", 
      "attrs": {
        "__dtype__": "0", 
        "__init__": "zeros", 
        "__lr_mult__": "1.0", 
        "__shape__": "(128,)", 
        "__storage_type__": "0", 
        "__wd_mult__": "1.0"
      }, 
      "inputs": []
    }, 
    {
      "op": "null", 
      "name": "east0_resnetv1d_layers2_batchnorm9_running_var", 
      "attrs": {
        "__dtype__": "0", 
        "__init__": "ones", 
        "__lr_mult__": "1.0", 
        "__shape__": "(128,)", 
        "__storage_type__": "0", 
        "__wd_mult__": "1.0"
      }, 
      "inputs": []
    }, 
    {
      "op": "BatchNorm", 
      "name": "east0_resnetv1d_layers2_batchnorm9_fwd", 
      "attrs": {
        "axis": "1", 
        "eps": "1e-05", 
        "fix_gamma": "False", 
        "momentum": "0.9", 
        "use_global_stats": "False"
      }, 
      "inputs": [[194, 0, 0], [195, 0, 0], [196, 0, 0], [197, 0, 1], [198, 0, 1]]
    }, 
    {
      "op": "Activation", 
      "name": "east0_resnetv1d_layers2_relu9_fwd", 
      "attrs": {"act_type": "relu"}, 
      "inputs": [[199, 0, 0]]
    }, 
    {
      "op": "null", 
      "name": "east0_resnetv1d_layers2_conv10_weight", 
      "attrs": {
        "__dtype__": "0", 
        "__lr_mult__": "1.0", 
        "__shape__": "(128, 0, 3, 3)", 
        "__storage_type__": "0", 
        "__wd_mult__": "1.0"
      }, 
      "inputs": []
    }, 
    {
      "op": "Convolution", 
      "name": "east0_resnetv1d_layers2_conv10_fwd", 
      "attrs": {
        "dilate": "(1, 1)", 
        "kernel": "(3, 3)", 
        "layout": "NCHW", 
        "no_bias": "True", 
        "num_filter": "128", 
        "num_group": "1", 
        "pad": "(1, 1)", 
        "stride": "(1, 1)"
      }, 
      "inputs": [[200, 0, 0], [201, 0, 0]]
    }, 
    {
      "op": "null", 
      "name": "east0_resnetv1d_layers2_batchnorm10_gamma", 
      "attrs": {
        "__dtype__": "0", 
        "__init__": "ones", 
        "__lr_mult__": "1.0", 
        "__shape__": "(128,)", 
        "__storage_type__": "0", 
        "__wd_mult__": "1.0"
      }, 
      "inputs": []
    }, 
    {
      "op": "null", 
      "name": "east0_resnetv1d_layers2_batchnorm10_beta", 
      "attrs": {
        "__dtype__": "0", 
        "__init__": "zeros", 
        "__lr_mult__": "1.0", 
        "__shape__": "(128,)", 
        "__storage_type__": "0", 
        "__wd_mult__": "1.0"
      }, 
      "inputs": []
    }, 
    {
      "op": "null", 
      "name": "east0_resnetv1d_layers2_batchnorm10_running_mean", 
      "attrs": {
        "__dtype__": "0", 
        "__init__": "zeros", 
        "__lr_mult__": "1.0", 
        "__shape__": "(128,)", 
        "__storage_type__": "0", 
        "__wd_mult__": "1.0"
      }, 
      "inputs": []
    }, 
    {
      "op": "null", 
      "name": "east0_resnetv1d_layers2_batchnorm10_running_var", 
      "attrs": {
        "__dtype__": "0", 
        "__init__": "ones", 
        "__lr_mult__": "1.0", 
        "__shape__": "(128,)", 
        "__storage_type__": "0", 
        "__wd_mult__": "1.0"
      }, 
      "inputs": []
    }, 
    {
      "op": "BatchNorm", 
      "name": "east0_resnetv1d_layers2_batchnorm10_fwd", 
      "attrs": {
        "axis": "1", 
        "eps": "1e-05", 
        "fix_gamma": "False", 
        "momentum": "0.9", 
        "use_global_stats": "False"
      }, 
      "inputs": [[202, 0, 0], [203, 0, 0], [204, 0, 0], [205, 0, 1], [206, 0, 1]]
    }, 
    {
      "op": "Activation", 
      "name": "east0_resnetv1d_layers2_relu10_fwd", 
      "attrs": {"act_type": "relu"}, 
      "inputs": [[207, 0, 0]]
    }, 
    {
      "op": "null", 
      "name": "east0_resnetv1d_layers2_conv11_weight", 
      "attrs": {
        "__dtype__": "0", 
        "__lr_mult__": "1.0", 
        "__shape__": "(512, 0, 1, 1)", 
        "__storage_type__": "0", 
        "__wd_mult__": "1.0"
      }, 
      "inputs": []
    }, 
    {
      "op": "Convolution", 
      "name": "east0_resnetv1d_layers2_conv11_fwd", 
      "attrs": {
        "dilate": "(1, 1)", 
        "kernel": "(1, 1)", 
        "layout": "NCHW", 
        "no_bias": "True", 
        "num_filter": "512", 
        "num_group": "1", 
        "pad": "(0, 0)", 
        "stride": "(1, 1)"
      }, 
      "inputs": [[208, 0, 0], [209, 0, 0]]
    }, 
    {
      "op": "null", 
      "name": "east0_resnetv1d_layers2_batchnorm11_gamma", 
      "attrs": {
        "__dtype__": "0", 
        "__init__": "ones", 
        "__lr_mult__": "1.0", 
        "__shape__": "(512,)", 
        "__storage_type__": "0", 
        "__wd_mult__": "1.0"
      }, 
      "inputs": []
    }, 
    {
      "op": "null", 
      "name": "east0_resnetv1d_layers2_batchnorm11_beta", 
      "attrs": {
        "__dtype__": "0", 
        "__init__": "zeros", 
        "__lr_mult__": "1.0", 
        "__shape__": "(512,)", 
        "__storage_type__": "0", 
        "__wd_mult__": "1.0"
      }, 
      "inputs": []
    }, 
    {
      "op": "null", 
      "name": "east0_resnetv1d_layers2_batchnorm11_running_mean", 
      "attrs": {
        "__dtype__": "0", 
        "__init__": "zeros", 
        "__lr_mult__": "1.0", 
        "__shape__": "(512,)", 
        "__storage_type__": "0", 
        "__wd_mult__": "1.0"
      }, 
      "inputs": []
    }, 
    {
      "op": "null", 
      "name": "east0_resnetv1d_layers2_batchnorm11_running_var", 
      "attrs": {
        "__dtype__": "0", 
        "__init__": "ones", 
        "__lr_mult__": "1.0", 
        "__shape__": "(512,)", 
        "__storage_type__": "0", 
        "__wd_mult__": "1.0"
      }, 
      "inputs": []
    }, 
    {
      "op": "BatchNorm", 
      "name": "east0_resnetv1d_layers2_batchnorm11_fwd", 
      "attrs": {
        "axis": "1", 
        "eps": "1e-05", 
        "fix_gamma": "False", 
        "momentum": "0.9", 
        "use_global_stats": "False"
      }, 
      "inputs": [[210, 0, 0], [211, 0, 0], [212, 0, 0], [213, 0, 1], [214, 0, 1]]
    }, 
    {
      "op": "elemwise_add", 
      "name": "east0_resnetv1d_layers2_bottleneckv1b3__plus0", 
      "inputs": [[215, 0, 0], [192, 0, 0]]
    }, 
    {
      "op": "Activation", 
      "name": "east0_resnetv1d_layers2_relu11_fwd", 
      "attrs": {"act_type": "relu"}, 
      "inputs": [[216, 0, 0]]
    }, 
    {
      "op": "null", 
      "name": "east0_resnetv1d_layers3_conv0_weight", 
      "attrs": {
        "__dtype__": "0", 
        "__lr_mult__": "1.0", 
        "__shape__": "(256, 0, 1, 1)", 
        "__storage_type__": "0", 
        "__wd_mult__": "1.0"
      }, 
      "inputs": []
    }, 
    {
      "op": "Convolution", 
      "name": "east0_resnetv1d_layers3_conv0_fwd", 
      "attrs": {
        "dilate": "(1, 1)", 
        "kernel": "(1, 1)", 
        "layout": "NCHW", 
        "no_bias": "True", 
        "num_filter": "256", 
        "num_group": "1", 
        "pad": "(0, 0)", 
        "stride": "(1, 1)"
      }, 
      "inputs": [[217, 0, 0], [218, 0, 0]]
    }, 
    {
      "op": "null", 
      "name": "east0_resnetv1d_layers3_batchnorm0_gamma", 
      "attrs": {
        "__dtype__": "0", 
        "__init__": "ones", 
        "__lr_mult__": "1.0", 
        "__shape__": "(256,)", 
        "__storage_type__": "0", 
        "__wd_mult__": "1.0"
      }, 
      "inputs": []
    }, 
    {
      "op": "null", 
      "name": "east0_resnetv1d_layers3_batchnorm0_beta", 
      "attrs": {
        "__dtype__": "0", 
        "__init__": "zeros", 
        "__lr_mult__": "1.0", 
        "__shape__": "(256,)", 
        "__storage_type__": "0", 
        "__wd_mult__": "1.0"
      }, 
      "inputs": []
    }, 
    {
      "op": "null", 
      "name": "east0_resnetv1d_layers3_batchnorm0_running_mean", 
      "attrs": {
        "__dtype__": "0", 
        "__init__": "zeros", 
        "__lr_mult__": "1.0", 
        "__shape__": "(256,)", 
        "__storage_type__": "0", 
        "__wd_mult__": "1.0"
      }, 
      "inputs": []
    }, 
    {
      "op": "null", 
      "name": "east0_resnetv1d_layers3_batchnorm0_running_var", 
      "attrs": {
        "__dtype__": "0", 
        "__init__": "ones", 
        "__lr_mult__": "1.0", 
        "__shape__": "(256,)", 
        "__storage_type__": "0", 
        "__wd_mult__": "1.0"
      }, 
      "inputs": []
    }, 
    {
      "op": "BatchNorm", 
      "name": "east0_resnetv1d_layers3_batchnorm0_fwd", 
      "attrs": {
        "axis": "1", 
        "eps": "1e-05", 
        "fix_gamma": "False", 
        "momentum": "0.9", 
        "use_global_stats": "False"
      }, 
      "inputs": [[219, 0, 0], [220, 0, 0], [221, 0, 0], [222, 0, 1], [223, 0, 1]]
    }, 
    {
      "op": "Activation", 
      "name": "east0_resnetv1d_layers3_relu0_fwd", 
      "attrs": {"act_type": "relu"}, 
      "inputs": [[224, 0, 0]]
    }, 
    {
      "op": "null", 
      "name": "east0_resnetv1d_layers3_conv1_weight", 
      "attrs": {
        "__dtype__": "0", 
        "__lr_mult__": "1.0", 
        "__shape__": "(256, 0, 3, 3)", 
        "__storage_type__": "0", 
        "__wd_mult__": "1.0"
      }, 
      "inputs": []
    }, 
    {
      "op": "Convolution", 
      "name": "east0_resnetv1d_layers3_conv1_fwd", 
      "attrs": {
        "dilate": "(1, 1)", 
        "kernel": "(3, 3)", 
        "layout": "NCHW", 
        "no_bias": "True", 
        "num_filter": "256", 
        "num_group": "1", 
        "pad": "(1, 1)", 
        "stride": "(2, 2)"
      }, 
      "inputs": [[225, 0, 0], [226, 0, 0]]
    }, 
    {
      "op": "null", 
      "name": "east0_resnetv1d_layers3_batchnorm1_gamma", 
      "attrs": {
        "__dtype__": "0", 
        "__init__": "ones", 
        "__lr_mult__": "1.0", 
        "__shape__": "(256,)", 
        "__storage_type__": "0", 
        "__wd_mult__": "1.0"
      }, 
      "inputs": []
    }, 
    {
      "op": "null", 
      "name": "east0_resnetv1d_layers3_batchnorm1_beta", 
      "attrs": {
        "__dtype__": "0", 
        "__init__": "zeros", 
        "__lr_mult__": "1.0", 
        "__shape__": "(256,)", 
        "__storage_type__": "0", 
        "__wd_mult__": "1.0"
      }, 
      "inputs": []
    }, 
    {
      "op": "null", 
      "name": "east0_resnetv1d_layers3_batchnorm1_running_mean", 
      "attrs": {
        "__dtype__": "0", 
        "__init__": "zeros", 
        "__lr_mult__": "1.0", 
        "__shape__": "(256,)", 
        "__storage_type__": "0", 
        "__wd_mult__": "1.0"
      }, 
      "inputs": []
    }, 
    {
      "op": "null", 
      "name": "east0_resnetv1d_layers3_batchnorm1_running_var", 
      "attrs": {
        "__dtype__": "0", 
        "__init__": "ones", 
        "__lr_mult__": "1.0", 
        "__shape__": "(256,)", 
        "__storage_type__": "0", 
        "__wd_mult__": "1.0"
      }, 
      "inputs": []
    }, 
    {
      "op": "BatchNorm", 
      "name": "east0_resnetv1d_layers3_batchnorm1_fwd", 
      "attrs": {
        "axis": "1", 
        "eps": "1e-05", 
        "fix_gamma": "False", 
        "momentum": "0.9", 
        "use_global_stats": "False"
      }, 
      "inputs": [[227, 0, 0], [228, 0, 0], [229, 0, 0], [230, 0, 1], [231, 0, 1]]
    }, 
    {
      "op": "Activation", 
      "name": "east0_resnetv1d_layers3_relu1_fwd", 
      "attrs": {"act_type": "relu"}, 
      "inputs": [[232, 0, 0]]
    }, 
    {
      "op": "null", 
      "name": "east0_resnetv1d_layers3_conv2_weight", 
      "attrs": {
        "__dtype__": "0", 
        "__lr_mult__": "1.0", 
        "__shape__": "(1024, 0, 1, 1)", 
        "__storage_type__": "0", 
        "__wd_mult__": "1.0"
      }, 
      "inputs": []
    }, 
    {
      "op": "Convolution", 
      "name": "east0_resnetv1d_layers3_conv2_fwd", 
      "attrs": {
        "dilate": "(1, 1)", 
        "kernel": "(1, 1)", 
        "layout": "NCHW", 
        "no_bias": "True", 
        "num_filter": "1024", 
        "num_group": "1", 
        "pad": "(0, 0)", 
        "stride": "(1, 1)"
      }, 
      "inputs": [[233, 0, 0], [234, 0, 0]]
    }, 
    {
      "op": "null", 
      "name": "east0_resnetv1d_layers3_batchnorm2_gamma", 
      "attrs": {
        "__dtype__": "0", 
        "__init__": "ones", 
        "__lr_mult__": "1.0", 
        "__shape__": "(1024,)", 
        "__storage_type__": "0", 
        "__wd_mult__": "1.0"
      }, 
      "inputs": []
    }, 
    {
      "op": "null", 
      "name": "east0_resnetv1d_layers3_batchnorm2_beta", 
      "attrs": {
        "__dtype__": "0", 
        "__init__": "zeros", 
        "__lr_mult__": "1.0", 
        "__shape__": "(1024,)", 
        "__storage_type__": "0", 
        "__wd_mult__": "1.0"
      }, 
      "inputs": []
    }, 
    {
      "op": "null", 
      "name": "east0_resnetv1d_layers3_batchnorm2_running_mean", 
      "attrs": {
        "__dtype__": "0", 
        "__init__": "zeros", 
        "__lr_mult__": "1.0", 
        "__shape__": "(1024,)", 
        "__storage_type__": "0", 
        "__wd_mult__": "1.0"
      }, 
      "inputs": []
    }, 
    {
      "op": "null", 
      "name": "east0_resnetv1d_layers3_batchnorm2_running_var", 
      "attrs": {
        "__dtype__": "0", 
        "__init__": "ones", 
        "__lr_mult__": "1.0", 
        "__shape__": "(1024,)", 
        "__storage_type__": "0", 
        "__wd_mult__": "1.0"
      }, 
      "inputs": []
    }, 
    {
      "op": "BatchNorm", 
      "name": "east0_resnetv1d_layers3_batchnorm2_fwd", 
      "attrs": {
        "axis": "1", 
        "eps": "1e-05", 
        "fix_gamma": "False", 
        "momentum": "0.9", 
        "use_global_stats": "False"
      }, 
      "inputs": [[235, 0, 0], [236, 0, 0], [237, 0, 0], [238, 0, 1], [239, 0, 1]]
    }, 
    {
      "op": "Pooling", 
      "name": "east0_resnetv1d_down3_pool0_fwd", 
      "attrs": {
        "count_include_pad": "False", 
        "global_pool": "False", 
        "kernel": "(2, 2)", 
        "pad": "(0, 0)", 
        "pool_type": "avg", 
        "pooling_convention": "full", 
        "stride": "(2, 2)"
      }, 
      "inputs": [[217, 0, 0]]
    }, 
    {
      "op": "null", 
      "name": "east0_resnetv1d_down3_conv0_weight", 
      "attrs": {
        "__dtype__": "0", 
        "__lr_mult__": "1.0", 
        "__shape__": "(1024, 0, 1, 1)", 
        "__storage_type__": "0", 
        "__wd_mult__": "1.0"
      }, 
      "inputs": []
    }, 
    {
      "op": "Convolution", 
      "name": "east0_resnetv1d_down3_conv0_fwd", 
      "attrs": {
        "dilate": "(1, 1)", 
        "kernel": "(1, 1)", 
        "layout": "NCHW", 
        "no_bias": "True", 
        "num_filter": "1024", 
        "num_group": "1", 
        "pad": "(0, 0)", 
        "stride": "(1, 1)"
      }, 
      "inputs": [[241, 0, 0], [242, 0, 0]]
    }, 
    {
      "op": "null", 
      "name": "east0_resnetv1d_down3_batchnorm0_gamma", 
      "attrs": {
        "__dtype__": "0", 
        "__init__": "ones", 
        "__lr_mult__": "1.0", 
        "__shape__": "(1024,)", 
        "__storage_type__": "0", 
        "__wd_mult__": "1.0"
      }, 
      "inputs": []
    }, 
    {
      "op": "null", 
      "name": "east0_resnetv1d_down3_batchnorm0_beta", 
      "attrs": {
        "__dtype__": "0", 
        "__init__": "zeros", 
        "__lr_mult__": "1.0", 
        "__shape__": "(1024,)", 
        "__storage_type__": "0", 
        "__wd_mult__": "1.0"
      }, 
      "inputs": []
    }, 
    {
      "op": "null", 
      "name": "east0_resnetv1d_down3_batchnorm0_running_mean", 
      "attrs": {
        "__dtype__": "0", 
        "__init__": "zeros", 
        "__lr_mult__": "1.0", 
        "__shape__": "(1024,)", 
        "__storage_type__": "0", 
        "__wd_mult__": "1.0"
      }, 
      "inputs": []
    }, 
    {
      "op": "null", 
      "name": "east0_resnetv1d_down3_batchnorm0_running_var", 
      "attrs": {
        "__dtype__": "0", 
        "__init__": "ones", 
        "__lr_mult__": "1.0", 
        "__shape__": "(1024,)", 
        "__storage_type__": "0", 
        "__wd_mult__": "1.0"
      }, 
      "inputs": []
    }, 
    {
      "op": "BatchNorm", 
      "name": "east0_resnetv1d_down3_batchnorm0_fwd", 
      "attrs": {
        "axis": "1", 
        "eps": "1e-05", 
        "fix_gamma": "False", 
        "momentum": "0.9", 
        "use_global_stats": "False"
      }, 
      "inputs": [[243, 0, 0], [244, 0, 0], [245, 0, 0], [246, 0, 1], [247, 0, 1]]
    }, 
    {
      "op": "elemwise_add", 
      "name": "east0_resnetv1d_layers3_bottleneckv1b0__plus0", 
      "inputs": [[240, 0, 0], [248, 0, 0]]
    }, 
    {
      "op": "Activation", 
      "name": "east0_resnetv1d_layers3_relu2_fwd", 
      "attrs": {"act_type": "relu"}, 
      "inputs": [[249, 0, 0]]
    }, 
    {
      "op": "null", 
      "name": "east0_resnetv1d_layers3_conv3_weight", 
      "attrs": {
        "__dtype__": "0", 
        "__lr_mult__": "1.0", 
        "__shape__": "(256, 0, 1, 1)", 
        "__storage_type__": "0", 
        "__wd_mult__": "1.0"
      }, 
      "inputs": []
    }, 
    {
      "op": "Convolution", 
      "name": "east0_resnetv1d_layers3_conv3_fwd", 
      "attrs": {
        "dilate": "(1, 1)", 
        "kernel": "(1, 1)", 
        "layout": "NCHW", 
        "no_bias": "True", 
        "num_filter": "256", 
        "num_group": "1", 
        "pad": "(0, 0)", 
        "stride": "(1, 1)"
      }, 
      "inputs": [[250, 0, 0], [251, 0, 0]]
    }, 
    {
      "op": "null", 
      "name": "east0_resnetv1d_layers3_batchnorm3_gamma", 
      "attrs": {
        "__dtype__": "0", 
        "__init__": "ones", 
        "__lr_mult__": "1.0", 
        "__shape__": "(256,)", 
        "__storage_type__": "0", 
        "__wd_mult__": "1.0"
      }, 
      "inputs": []
    }, 
    {
      "op": "null", 
      "name": "east0_resnetv1d_layers3_batchnorm3_beta", 
      "attrs": {
        "__dtype__": "0", 
        "__init__": "zeros", 
        "__lr_mult__": "1.0", 
        "__shape__": "(256,)", 
        "__storage_type__": "0", 
        "__wd_mult__": "1.0"
      }, 
      "inputs": []
    }, 
    {
      "op": "null", 
      "name": "east0_resnetv1d_layers3_batchnorm3_running_mean", 
      "attrs": {
        "__dtype__": "0", 
        "__init__": "zeros", 
        "__lr_mult__": "1.0", 
        "__shape__": "(256,)", 
        "__storage_type__": "0", 
        "__wd_mult__": "1.0"
      }, 
      "inputs": []
    }, 
    {
      "op": "null", 
      "name": "east0_resnetv1d_layers3_batchnorm3_running_var", 
      "attrs": {
        "__dtype__": "0", 
        "__init__": "ones", 
        "__lr_mult__": "1.0", 
        "__shape__": "(256,)", 
        "__storage_type__": "0", 
        "__wd_mult__": "1.0"
      }, 
      "inputs": []
    }, 
    {
      "op": "BatchNorm", 
      "name": "east0_resnetv1d_layers3_batchnorm3_fwd", 
      "attrs": {
        "axis": "1", 
        "eps": "1e-05", 
        "fix_gamma": "False", 
        "momentum": "0.9", 
        "use_global_stats": "False"
      }, 
      "inputs": [[252, 0, 0], [253, 0, 0], [254, 0, 0], [255, 0, 1], [256, 0, 1]]
    }, 
    {
      "op": "Activation", 
      "name": "east0_resnetv1d_layers3_relu3_fwd", 
      "attrs": {"act_type": "relu"}, 
      "inputs": [[257, 0, 0]]
    }, 
    {
      "op": "null", 
      "name": "east0_resnetv1d_layers3_conv4_weight", 
      "attrs": {
        "__dtype__": "0", 
        "__lr_mult__": "1.0", 
        "__shape__": "(256, 0, 3, 3)", 
        "__storage_type__": "0", 
        "__wd_mult__": "1.0"
      }, 
      "inputs": []
    }, 
    {
      "op": "Convolution", 
      "name": "east0_resnetv1d_layers3_conv4_fwd", 
      "attrs": {
        "dilate": "(1, 1)", 
        "kernel": "(3, 3)", 
        "layout": "NCHW", 
        "no_bias": "True", 
        "num_filter": "256", 
        "num_group": "1", 
        "pad": "(1, 1)", 
        "stride": "(1, 1)"
      }, 
      "inputs": [[258, 0, 0], [259, 0, 0]]
    }, 
    {
      "op": "null", 
      "name": "east0_resnetv1d_layers3_batchnorm4_gamma", 
      "attrs": {
        "__dtype__": "0", 
        "__init__": "ones", 
        "__lr_mult__": "1.0", 
        "__shape__": "(256,)", 
        "__storage_type__": "0", 
        "__wd_mult__": "1.0"
      }, 
      "inputs": []
    }, 
    {
      "op": "null", 
      "name": "east0_resnetv1d_layers3_batchnorm4_beta", 
      "attrs": {
        "__dtype__": "0", 
        "__init__": "zeros", 
        "__lr_mult__": "1.0", 
        "__shape__": "(256,)", 
        "__storage_type__": "0", 
        "__wd_mult__": "1.0"
      }, 
      "inputs": []
    }, 
    {
      "op": "null", 
      "name": "east0_resnetv1d_layers3_batchnorm4_running_mean", 
      "attrs": {
        "__dtype__": "0", 
        "__init__": "zeros", 
        "__lr_mult__": "1.0", 
        "__shape__": "(256,)", 
        "__storage_type__": "0", 
        "__wd_mult__": "1.0"
      }, 
      "inputs": []
    }, 
    {
      "op": "null", 
      "name": "east0_resnetv1d_layers3_batchnorm4_running_var", 
      "attrs": {
        "__dtype__": "0", 
        "__init__": "ones", 
        "__lr_mult__": "1.0", 
        "__shape__": "(256,)", 
        "__storage_type__": "0", 
        "__wd_mult__": "1.0"
      }, 
      "inputs": []
    }, 
    {
      "op": "BatchNorm", 
      "name": "east0_resnetv1d_layers3_batchnorm4_fwd", 
      "attrs": {
        "axis": "1", 
        "eps": "1e-05", 
        "fix_gamma": "False", 
        "momentum": "0.9", 
        "use_global_stats": "False"
      }, 
      "inputs": [[260, 0, 0], [261, 0, 0], [262, 0, 0], [263, 0, 1], [264, 0, 1]]
    }, 
    {
      "op": "Activation", 
      "name": "east0_resnetv1d_layers3_relu4_fwd", 
      "attrs": {"act_type": "relu"}, 
      "inputs": [[265, 0, 0]]
    }, 
    {
      "op": "null", 
      "name": "east0_resnetv1d_layers3_conv5_weight", 
      "attrs": {
        "__dtype__": "0", 
        "__lr_mult__": "1.0", 
        "__shape__": "(1024, 0, 1, 1)", 
        "__storage_type__": "0", 
        "__wd_mult__": "1.0"
      }, 
      "inputs": []
    }, 
    {
      "op": "Convolution", 
      "name": "east0_resnetv1d_layers3_conv5_fwd", 
      "attrs": {
        "dilate": "(1, 1)", 
        "kernel": "(1, 1)", 
        "layout": "NCHW", 
        "no_bias": "True", 
        "num_filter": "1024", 
        "num_group": "1", 
        "pad": "(0, 0)", 
        "stride": "(1, 1)"
      }, 
      "inputs": [[266, 0, 0], [267, 0, 0]]
    }, 
    {
      "op": "null", 
      "name": "east0_resnetv1d_layers3_batchnorm5_gamma", 
      "attrs": {
        "__dtype__": "0", 
        "__init__": "ones", 
        "__lr_mult__": "1.0", 
        "__shape__": "(1024,)", 
        "__storage_type__": "0", 
        "__wd_mult__": "1.0"
      }, 
      "inputs": []
    }, 
    {
      "op": "null", 
      "name": "east0_resnetv1d_layers3_batchnorm5_beta", 
      "attrs": {
        "__dtype__": "0", 
        "__init__": "zeros", 
        "__lr_mult__": "1.0", 
        "__shape__": "(1024,)", 
        "__storage_type__": "0", 
        "__wd_mult__": "1.0"
      }, 
      "inputs": []
    }, 
    {
      "op": "null", 
      "name": "east0_resnetv1d_layers3_batchnorm5_running_mean", 
      "attrs": {
        "__dtype__": "0", 
        "__init__": "zeros", 
        "__lr_mult__": "1.0", 
        "__shape__": "(1024,)", 
        "__storage_type__": "0", 
        "__wd_mult__": "1.0"
      }, 
      "inputs": []
    }, 
    {
      "op": "null", 
      "name": "east0_resnetv1d_layers3_batchnorm5_running_var", 
      "attrs": {
        "__dtype__": "0", 
        "__init__": "ones", 
        "__lr_mult__": "1.0", 
        "__shape__": "(1024,)", 
        "__storage_type__": "0", 
        "__wd_mult__": "1.0"
      }, 
      "inputs": []
    }, 
    {
      "op": "BatchNorm", 
      "name": "east0_resnetv1d_layers3_batchnorm5_fwd", 
      "attrs": {
        "axis": "1", 
        "eps": "1e-05", 
        "fix_gamma": "False", 
        "momentum": "0.9", 
        "use_global_stats": "False"
      }, 
      "inputs": [[268, 0, 0], [269, 0, 0], [270, 0, 0], [271, 0, 1], [272, 0, 1]]
    }, 
    {
      "op": "elemwise_add", 
      "name": "east0_resnetv1d_layers3_bottleneckv1b1__plus0", 
      "inputs": [[273, 0, 0], [250, 0, 0]]
    }, 
    {
      "op": "Activation", 
      "name": "east0_resnetv1d_layers3_relu5_fwd", 
      "attrs": {"act_type": "relu"}, 
      "inputs": [[274, 0, 0]]
    }, 
    {
      "op": "null", 
      "name": "east0_resnetv1d_layers3_conv6_weight", 
      "attrs": {
        "__dtype__": "0", 
        "__lr_mult__": "1.0", 
        "__shape__": "(256, 0, 1, 1)", 
        "__storage_type__": "0", 
        "__wd_mult__": "1.0"
      }, 
      "inputs": []
    }, 
    {
      "op": "Convolution", 
      "name": "east0_resnetv1d_layers3_conv6_fwd", 
      "attrs": {
        "dilate": "(1, 1)", 
        "kernel": "(1, 1)", 
        "layout": "NCHW", 
        "no_bias": "True", 
        "num_filter": "256", 
        "num_group": "1", 
        "pad": "(0, 0)", 
        "stride": "(1, 1)"
      }, 
      "inputs": [[275, 0, 0], [276, 0, 0]]
    }, 
    {
      "op": "null", 
      "name": "east0_resnetv1d_layers3_batchnorm6_gamma", 
      "attrs": {
        "__dtype__": "0", 
        "__init__": "ones", 
        "__lr_mult__": "1.0", 
        "__shape__": "(256,)", 
        "__storage_type__": "0", 
        "__wd_mult__": "1.0"
      }, 
      "inputs": []
    }, 
    {
      "op": "null", 
      "name": "east0_resnetv1d_layers3_batchnorm6_beta", 
      "attrs": {
        "__dtype__": "0", 
        "__init__": "zeros", 
        "__lr_mult__": "1.0", 
        "__shape__": "(256,)", 
        "__storage_type__": "0", 
        "__wd_mult__": "1.0"
      }, 
      "inputs": []
    }, 
    {
      "op": "null", 
      "name": "east0_resnetv1d_layers3_batchnorm6_running_mean", 
      "attrs": {
        "__dtype__": "0", 
        "__init__": "zeros", 
        "__lr_mult__": "1.0", 
        "__shape__": "(256,)", 
        "__storage_type__": "0", 
        "__wd_mult__": "1.0"
      }, 
      "inputs": []
    }, 
    {
      "op": "null", 
      "name": "east0_resnetv1d_layers3_batchnorm6_running_var", 
      "attrs": {
        "__dtype__": "0", 
        "__init__": "ones", 
        "__lr_mult__": "1.0", 
        "__shape__": "(256,)", 
        "__storage_type__": "0", 
        "__wd_mult__": "1.0"
      }, 
      "inputs": []
    }, 
    {
      "op": "BatchNorm", 
      "name": "east0_resnetv1d_layers3_batchnorm6_fwd", 
      "attrs": {
        "axis": "1", 
        "eps": "1e-05", 
        "fix_gamma": "False", 
        "momentum": "0.9", 
        "use_global_stats": "False"
      }, 
      "inputs": [[277, 0, 0], [278, 0, 0], [279, 0, 0], [280, 0, 1], [281, 0, 1]]
    }, 
    {
      "op": "Activation", 
      "name": "east0_resnetv1d_layers3_relu6_fwd", 
      "attrs": {"act_type": "relu"}, 
      "inputs": [[282, 0, 0]]
    }, 
    {
      "op": "null", 
      "name": "east0_resnetv1d_layers3_conv7_weight", 
      "attrs": {
        "__dtype__": "0", 
        "__lr_mult__": "1.0", 
        "__shape__": "(256, 0, 3, 3)", 
        "__storage_type__": "0", 
        "__wd_mult__": "1.0"
      }, 
      "inputs": []
    }, 
    {
      "op": "Convolution", 
      "name": "east0_resnetv1d_layers3_conv7_fwd", 
      "attrs": {
        "dilate": "(1, 1)", 
        "kernel": "(3, 3)", 
        "layout": "NCHW", 
        "no_bias": "True", 
        "num_filter": "256", 
        "num_group": "1", 
        "pad": "(1, 1)", 
        "stride": "(1, 1)"
      }, 
      "inputs": [[283, 0, 0], [284, 0, 0]]
    }, 
    {
      "op": "null", 
      "name": "east0_resnetv1d_layers3_batchnorm7_gamma", 
      "attrs": {
        "__dtype__": "0", 
        "__init__": "ones", 
        "__lr_mult__": "1.0", 
        "__shape__": "(256,)", 
        "__storage_type__": "0", 
        "__wd_mult__": "1.0"
      }, 
      "inputs": []
    }, 
    {
      "op": "null", 
      "name": "east0_resnetv1d_layers3_batchnorm7_beta", 
      "attrs": {
        "__dtype__": "0", 
        "__init__": "zeros", 
        "__lr_mult__": "1.0", 
        "__shape__": "(256,)", 
        "__storage_type__": "0", 
        "__wd_mult__": "1.0"
      }, 
      "inputs": []
    }, 
    {
      "op": "null", 
      "name": "east0_resnetv1d_layers3_batchnorm7_running_mean", 
      "attrs": {
        "__dtype__": "0", 
        "__init__": "zeros", 
        "__lr_mult__": "1.0", 
        "__shape__": "(256,)", 
        "__storage_type__": "0", 
        "__wd_mult__": "1.0"
      }, 
      "inputs": []
    }, 
    {
      "op": "null", 
      "name": "east0_resnetv1d_layers3_batchnorm7_running_var", 
      "attrs": {
        "__dtype__": "0", 
        "__init__": "ones", 
        "__lr_mult__": "1.0", 
        "__shape__": "(256,)", 
        "__storage_type__": "0", 
        "__wd_mult__": "1.0"
      }, 
      "inputs": []
    }, 
    {
      "op": "BatchNorm", 
      "name": "east0_resnetv1d_layers3_batchnorm7_fwd", 
      "attrs": {
        "axis": "1", 
        "eps": "1e-05", 
        "fix_gamma": "False", 
        "momentum": "0.9", 
        "use_global_stats": "False"
      }, 
      "inputs": [[285, 0, 0], [286, 0, 0], [287, 0, 0], [288, 0, 1], [289, 0, 1]]
    }, 
    {
      "op": "Activation", 
      "name": "east0_resnetv1d_layers3_relu7_fwd", 
      "attrs": {"act_type": "relu"}, 
      "inputs": [[290, 0, 0]]
    }, 
    {
      "op": "null", 
      "name": "east0_resnetv1d_layers3_conv8_weight", 
      "attrs": {
        "__dtype__": "0", 
        "__lr_mult__": "1.0", 
        "__shape__": "(1024, 0, 1, 1)", 
        "__storage_type__": "0", 
        "__wd_mult__": "1.0"
      }, 
      "inputs": []
    }, 
    {
      "op": "Convolution", 
      "name": "east0_resnetv1d_layers3_conv8_fwd", 
      "attrs": {
        "dilate": "(1, 1)", 
        "kernel": "(1, 1)", 
        "layout": "NCHW", 
        "no_bias": "True", 
        "num_filter": "1024", 
        "num_group": "1", 
        "pad": "(0, 0)", 
        "stride": "(1, 1)"
      }, 
      "inputs": [[291, 0, 0], [292, 0, 0]]
    }, 
    {
      "op": "null", 
      "name": "east0_resnetv1d_layers3_batchnorm8_gamma", 
      "attrs": {
        "__dtype__": "0", 
        "__init__": "ones", 
        "__lr_mult__": "1.0", 
        "__shape__": "(1024,)", 
        "__storage_type__": "0", 
        "__wd_mult__": "1.0"
      }, 
      "inputs": []
    }, 
    {
      "op": "null", 
      "name": "east0_resnetv1d_layers3_batchnorm8_beta", 
      "attrs": {
        "__dtype__": "0", 
        "__init__": "zeros", 
        "__lr_mult__": "1.0", 
        "__shape__": "(1024,)", 
        "__storage_type__": "0", 
        "__wd_mult__": "1.0"
      }, 
      "inputs": []
    }, 
    {
      "op": "null", 
      "name": "east0_resnetv1d_layers3_batchnorm8_running_mean", 
      "attrs": {
        "__dtype__": "0", 
        "__init__": "zeros", 
        "__lr_mult__": "1.0", 
        "__shape__": "(1024,)", 
        "__storage_type__": "0", 
        "__wd_mult__": "1.0"
      }, 
      "inputs": []
    }, 
    {
      "op": "null", 
      "name": "east0_resnetv1d_layers3_batchnorm8_running_var", 
      "attrs": {
        "__dtype__": "0", 
        "__init__": "ones", 
        "__lr_mult__": "1.0", 
        "__shape__": "(1024,)", 
        "__storage_type__": "0", 
        "__wd_mult__": "1.0"
      }, 
      "inputs": []
    }, 
    {
      "op": "BatchNorm", 
      "name": "east0_resnetv1d_layers3_batchnorm8_fwd", 
      "attrs": {
        "axis": "1", 
        "eps": "1e-05", 
        "fix_gamma": "False", 
        "momentum": "0.9", 
        "use_global_stats": "False"
      }, 
      "inputs": [[293, 0, 0], [294, 0, 0], [295, 0, 0], [296, 0, 1], [297, 0, 1]]
    }, 
    {
      "op": "elemwise_add", 
      "name": "east0_resnetv1d_layers3_bottleneckv1b2__plus0", 
      "inputs": [[298, 0, 0], [275, 0, 0]]
    }, 
    {
      "op": "Activation", 
      "name": "east0_resnetv1d_layers3_relu8_fwd", 
      "attrs": {"act_type": "relu"}, 
      "inputs": [[299, 0, 0]]
    }, 
    {
      "op": "null", 
      "name": "east0_resnetv1d_layers3_conv9_weight", 
      "attrs": {
        "__dtype__": "0", 
        "__lr_mult__": "1.0", 
        "__shape__": "(256, 0, 1, 1)", 
        "__storage_type__": "0", 
        "__wd_mult__": "1.0"
      }, 
      "inputs": []
    }, 
    {
      "op": "Convolution", 
      "name": "east0_resnetv1d_layers3_conv9_fwd", 
      "attrs": {
        "dilate": "(1, 1)", 
        "kernel": "(1, 1)", 
        "layout": "NCHW", 
        "no_bias": "True", 
        "num_filter": "256", 
        "num_group": "1", 
        "pad": "(0, 0)", 
        "stride": "(1, 1)"
      }, 
      "inputs": [[300, 0, 0], [301, 0, 0]]
    }, 
    {
      "op": "null", 
      "name": "east0_resnetv1d_layers3_batchnorm9_gamma", 
      "attrs": {
        "__dtype__": "0", 
        "__init__": "ones", 
        "__lr_mult__": "1.0", 
        "__shape__": "(256,)", 
        "__storage_type__": "0", 
        "__wd_mult__": "1.0"
      }, 
      "inputs": []
    }, 
    {
      "op": "null", 
      "name": "east0_resnetv1d_layers3_batchnorm9_beta", 
      "attrs": {
        "__dtype__": "0", 
        "__init__": "zeros", 
        "__lr_mult__": "1.0", 
        "__shape__": "(256,)", 
        "__storage_type__": "0", 
        "__wd_mult__": "1.0"
      }, 
      "inputs": []
    }, 
    {
      "op": "null", 
      "name": "east0_resnetv1d_layers3_batchnorm9_running_mean", 
      "attrs": {
        "__dtype__": "0", 
        "__init__": "zeros", 
        "__lr_mult__": "1.0", 
        "__shape__": "(256,)", 
        "__storage_type__": "0", 
        "__wd_mult__": "1.0"
      }, 
      "inputs": []
    }, 
    {
      "op": "null", 
      "name": "east0_resnetv1d_layers3_batchnorm9_running_var", 
      "attrs": {
        "__dtype__": "0", 
        "__init__": "ones", 
        "__lr_mult__": "1.0", 
        "__shape__": "(256,)", 
        "__storage_type__": "0", 
        "__wd_mult__": "1.0"
      }, 
      "inputs": []
    }, 
    {
      "op": "BatchNorm", 
      "name": "east0_resnetv1d_layers3_batchnorm9_fwd", 
      "attrs": {
        "axis": "1", 
        "eps": "1e-05", 
        "fix_gamma": "False", 
        "momentum": "0.9", 
        "use_global_stats": "False"
      }, 
      "inputs": [[302, 0, 0], [303, 0, 0], [304, 0, 0], [305, 0, 1], [306, 0, 1]]
    }, 
    {
      "op": "Activation", 
      "name": "east0_resnetv1d_layers3_relu9_fwd", 
      "attrs": {"act_type": "relu"}, 
      "inputs": [[307, 0, 0]]
    }, 
    {
      "op": "null", 
      "name": "east0_resnetv1d_layers3_conv10_weight", 
      "attrs": {
        "__dtype__": "0", 
        "__lr_mult__": "1.0", 
        "__shape__": "(256, 0, 3, 3)", 
        "__storage_type__": "0", 
        "__wd_mult__": "1.0"
      }, 
      "inputs": []
    }, 
    {
      "op": "Convolution", 
      "name": "east0_resnetv1d_layers3_conv10_fwd", 
      "attrs": {
        "dilate": "(1, 1)", 
        "kernel": "(3, 3)", 
        "layout": "NCHW", 
        "no_bias": "True", 
        "num_filter": "256", 
        "num_group": "1", 
        "pad": "(1, 1)", 
        "stride": "(1, 1)"
      }, 
      "inputs": [[308, 0, 0], [309, 0, 0]]
    }, 
    {
      "op": "null", 
      "name": "east0_resnetv1d_layers3_batchnorm10_gamma", 
      "attrs": {
        "__dtype__": "0", 
        "__init__": "ones", 
        "__lr_mult__": "1.0", 
        "__shape__": "(256,)", 
        "__storage_type__": "0", 
        "__wd_mult__": "1.0"
      }, 
      "inputs": []
    }, 
    {
      "op": "null", 
      "name": "east0_resnetv1d_layers3_batchnorm10_beta", 
      "attrs": {
        "__dtype__": "0", 
        "__init__": "zeros", 
        "__lr_mult__": "1.0", 
        "__shape__": "(256,)", 
        "__storage_type__": "0", 
        "__wd_mult__": "1.0"
      }, 
      "inputs": []
    }, 
    {
      "op": "null", 
      "name": "east0_resnetv1d_layers3_batchnorm10_running_mean", 
      "attrs": {
        "__dtype__": "0", 
        "__init__": "zeros", 
        "__lr_mult__": "1.0", 
        "__shape__": "(256,)", 
        "__storage_type__": "0", 
        "__wd_mult__": "1.0"
      }, 
      "inputs": []
    }, 
    {
      "op": "null", 
      "name": "east0_resnetv1d_layers3_batchnorm10_running_var", 
      "attrs": {
        "__dtype__": "0", 
        "__init__": "ones", 
        "__lr_mult__": "1.0", 
        "__shape__": "(256,)", 
        "__storage_type__": "0", 
        "__wd_mult__": "1.0"
      }, 
      "inputs": []
    }, 
    {
      "op": "BatchNorm", 
      "name": "east0_resnetv1d_layers3_batchnorm10_fwd", 
      "attrs": {
        "axis": "1", 
        "eps": "1e-05", 
        "fix_gamma": "False", 
        "momentum": "0.9", 
        "use_global_stats": "False"
      }, 
      "inputs": [[310, 0, 0], [311, 0, 0], [312, 0, 0], [313, 0, 1], [314, 0, 1]]
    }, 
    {
      "op": "Activation", 
      "name": "east0_resnetv1d_layers3_relu10_fwd", 
      "attrs": {"act_type": "relu"}, 
      "inputs": [[315, 0, 0]]
    }, 
    {
      "op": "null", 
      "name": "east0_resnetv1d_layers3_conv11_weight", 
      "attrs": {
        "__dtype__": "0", 
        "__lr_mult__": "1.0", 
        "__shape__": "(1024, 0, 1, 1)", 
        "__storage_type__": "0", 
        "__wd_mult__": "1.0"
      }, 
      "inputs": []
    }, 
    {
      "op": "Convolution", 
      "name": "east0_resnetv1d_layers3_conv11_fwd", 
      "attrs": {
        "dilate": "(1, 1)", 
        "kernel": "(1, 1)", 
        "layout": "NCHW", 
        "no_bias": "True", 
        "num_filter": "1024", 
        "num_group": "1", 
        "pad": "(0, 0)", 
        "stride": "(1, 1)"
      }, 
      "inputs": [[316, 0, 0], [317, 0, 0]]
    }, 
    {
      "op": "null", 
      "name": "east0_resnetv1d_layers3_batchnorm11_gamma", 
      "attrs": {
        "__dtype__": "0", 
        "__init__": "ones", 
        "__lr_mult__": "1.0", 
        "__shape__": "(1024,)", 
        "__storage_type__": "0", 
        "__wd_mult__": "1.0"
      }, 
      "inputs": []
    }, 
    {
      "op": "null", 
      "name": "east0_resnetv1d_layers3_batchnorm11_beta", 
      "attrs": {
        "__dtype__": "0", 
        "__init__": "zeros", 
        "__lr_mult__": "1.0", 
        "__shape__": "(1024,)", 
        "__storage_type__": "0", 
        "__wd_mult__": "1.0"
      }, 
      "inputs": []
    }, 
    {
      "op": "null", 
      "name": "east0_resnetv1d_layers3_batchnorm11_running_mean", 
      "attrs": {
        "__dtype__": "0", 
        "__init__": "zeros", 
        "__lr_mult__": "1.0", 
        "__shape__": "(1024,)", 
        "__storage_type__": "0", 
        "__wd_mult__": "1.0"
      }, 
      "inputs": []
    }, 
    {
      "op": "null", 
      "name": "east0_resnetv1d_layers3_batchnorm11_running_var", 
      "attrs": {
        "__dtype__": "0", 
        "__init__": "ones", 
        "__lr_mult__": "1.0", 
        "__shape__": "(1024,)", 
        "__storage_type__": "0", 
        "__wd_mult__": "1.0"
      }, 
      "inputs": []
    }, 
    {
      "op": "BatchNorm", 
      "name": "east0_resnetv1d_layers3_batchnorm11_fwd", 
      "attrs": {
        "axis": "1", 
        "eps": "1e-05", 
        "fix_gamma": "False", 
        "momentum": "0.9", 
        "use_global_stats": "False"
      }, 
      "inputs": [[318, 0, 0], [319, 0, 0], [320, 0, 0], [321, 0, 1], [322, 0, 1]]
    }, 
    {
      "op": "elemwise_add", 
      "name": "east0_resnetv1d_layers3_bottleneckv1b3__plus0", 
      "inputs": [[323, 0, 0], [300, 0, 0]]
    }, 
    {
      "op": "Activation", 
      "name": "east0_resnetv1d_layers3_relu11_fwd", 
      "attrs": {"act_type": "relu"}, 
      "inputs": [[324, 0, 0]]
    }, 
    {
      "op": "null", 
      "name": "east0_resnetv1d_layers3_conv12_weight", 
      "attrs": {
        "__dtype__": "0", 
        "__lr_mult__": "1.0", 
        "__shape__": "(256, 0, 1, 1)", 
        "__storage_type__": "0", 
        "__wd_mult__": "1.0"
      }, 
      "inputs": []
    }, 
    {
      "op": "Convolution", 
      "name": "east0_resnetv1d_layers3_conv12_fwd", 
      "attrs": {
        "dilate": "(1, 1)", 
        "kernel": "(1, 1)", 
        "layout": "NCHW", 
        "no_bias": "True", 
        "num_filter": "256", 
        "num_group": "1", 
        "pad": "(0, 0)", 
        "stride": "(1, 1)"
      }, 
      "inputs": [[325, 0, 0], [326, 0, 0]]
    }, 
    {
      "op": "null", 
      "name": "east0_resnetv1d_layers3_batchnorm12_gamma", 
      "attrs": {
        "__dtype__": "0", 
        "__init__": "ones", 
        "__lr_mult__": "1.0", 
        "__shape__": "(256,)", 
        "__storage_type__": "0", 
        "__wd_mult__": "1.0"
      }, 
      "inputs": []
    }, 
    {
      "op": "null", 
      "name": "east0_resnetv1d_layers3_batchnorm12_beta", 
      "attrs": {
        "__dtype__": "0", 
        "__init__": "zeros", 
        "__lr_mult__": "1.0", 
        "__shape__": "(256,)", 
        "__storage_type__": "0", 
        "__wd_mult__": "1.0"
      }, 
      "inputs": []
    }, 
    {
      "op": "null", 
      "name": "east0_resnetv1d_layers3_batchnorm12_running_mean", 
      "attrs": {
        "__dtype__": "0", 
        "__init__": "zeros", 
        "__lr_mult__": "1.0", 
        "__shape__": "(256,)", 
        "__storage_type__": "0", 
        "__wd_mult__": "1.0"
      }, 
      "inputs": []
    }, 
    {
      "op": "null", 
      "name": "east0_resnetv1d_layers3_batchnorm12_running_var", 
      "attrs": {
        "__dtype__": "0", 
        "__init__": "ones", 
        "__lr_mult__": "1.0", 
        "__shape__": "(256,)", 
        "__storage_type__": "0", 
        "__wd_mult__": "1.0"
      }, 
      "inputs": []
    }, 
    {
      "op": "BatchNorm", 
      "name": "east0_resnetv1d_layers3_batchnorm12_fwd", 
      "attrs": {
        "axis": "1", 
        "eps": "1e-05", 
        "fix_gamma": "False", 
        "momentum": "0.9", 
        "use_global_stats": "False"
      }, 
      "inputs": [[327, 0, 0], [328, 0, 0], [329, 0, 0], [330, 0, 1], [331, 0, 1]]
    }, 
    {
      "op": "Activation", 
      "name": "east0_resnetv1d_layers3_relu12_fwd", 
      "attrs": {"act_type": "relu"}, 
      "inputs": [[332, 0, 0]]
    }, 
    {
      "op": "null", 
      "name": "east0_resnetv1d_layers3_conv13_weight", 
      "attrs": {
        "__dtype__": "0", 
        "__lr_mult__": "1.0", 
        "__shape__": "(256, 0, 3, 3)", 
        "__storage_type__": "0", 
        "__wd_mult__": "1.0"
      }, 
      "inputs": []
    }, 
    {
      "op": "Convolution", 
      "name": "east0_resnetv1d_layers3_conv13_fwd", 
      "attrs": {
        "dilate": "(1, 1)", 
        "kernel": "(3, 3)", 
        "layout": "NCHW", 
        "no_bias": "True", 
        "num_filter": "256", 
        "num_group": "1", 
        "pad": "(1, 1)", 
        "stride": "(1, 1)"
      }, 
      "inputs": [[333, 0, 0], [334, 0, 0]]
    }, 
    {
      "op": "null", 
      "name": "east0_resnetv1d_layers3_batchnorm13_gamma", 
      "attrs": {
        "__dtype__": "0", 
        "__init__": "ones", 
        "__lr_mult__": "1.0", 
        "__shape__": "(256,)", 
        "__storage_type__": "0", 
        "__wd_mult__": "1.0"
      }, 
      "inputs": []
    }, 
    {
      "op": "null", 
      "name": "east0_resnetv1d_layers3_batchnorm13_beta", 
      "attrs": {
        "__dtype__": "0", 
        "__init__": "zeros", 
        "__lr_mult__": "1.0", 
        "__shape__": "(256,)", 
        "__storage_type__": "0", 
        "__wd_mult__": "1.0"
      }, 
      "inputs": []
    }, 
    {
      "op": "null", 
      "name": "east0_resnetv1d_layers3_batchnorm13_running_mean", 
      "attrs": {
        "__dtype__": "0", 
        "__init__": "zeros", 
        "__lr_mult__": "1.0", 
        "__shape__": "(256,)", 
        "__storage_type__": "0", 
        "__wd_mult__": "1.0"
      }, 
      "inputs": []
    }, 
    {
      "op": "null", 
      "name": "east0_resnetv1d_layers3_batchnorm13_running_var", 
      "attrs": {
        "__dtype__": "0", 
        "__init__": "ones", 
        "__lr_mult__": "1.0", 
        "__shape__": "(256,)", 
        "__storage_type__": "0", 
        "__wd_mult__": "1.0"
      }, 
      "inputs": []
    }, 
    {
      "op": "BatchNorm", 
      "name": "east0_resnetv1d_layers3_batchnorm13_fwd", 
      "attrs": {
        "axis": "1", 
        "eps": "1e-05", 
        "fix_gamma": "False", 
        "momentum": "0.9", 
        "use_global_stats": "False"
      }, 
      "inputs": [[335, 0, 0], [336, 0, 0], [337, 0, 0], [338, 0, 1], [339, 0, 1]]
    }, 
    {
      "op": "Activation", 
      "name": "east0_resnetv1d_layers3_relu13_fwd", 
      "attrs": {"act_type": "relu"}, 
      "inputs": [[340, 0, 0]]
    }, 
    {
      "op": "null", 
      "name": "east0_resnetv1d_layers3_conv14_weight", 
      "attrs": {
        "__dtype__": "0", 
        "__lr_mult__": "1.0", 
        "__shape__": "(1024, 0, 1, 1)", 
        "__storage_type__": "0", 
        "__wd_mult__": "1.0"
      }, 
      "inputs": []
    }, 
    {
      "op": "Convolution", 
      "name": "east0_resnetv1d_layers3_conv14_fwd", 
      "attrs": {
        "dilate": "(1, 1)", 
        "kernel": "(1, 1)", 
        "layout": "NCHW", 
        "no_bias": "True", 
        "num_filter": "1024", 
        "num_group": "1", 
        "pad": "(0, 0)", 
        "stride": "(1, 1)"
      }, 
      "inputs": [[341, 0, 0], [342, 0, 0]]
    }, 
    {
      "op": "null", 
      "name": "east0_resnetv1d_layers3_batchnorm14_gamma", 
      "attrs": {
        "__dtype__": "0", 
        "__init__": "ones", 
        "__lr_mult__": "1.0", 
        "__shape__": "(1024,)", 
        "__storage_type__": "0", 
        "__wd_mult__": "1.0"
      }, 
      "inputs": []
    }, 
    {
      "op": "null", 
      "name": "east0_resnetv1d_layers3_batchnorm14_beta", 
      "attrs": {
        "__dtype__": "0", 
        "__init__": "zeros", 
        "__lr_mult__": "1.0", 
        "__shape__": "(1024,)", 
        "__storage_type__": "0", 
        "__wd_mult__": "1.0"
      }, 
      "inputs": []
    }, 
    {
      "op": "null", 
      "name": "east0_resnetv1d_layers3_batchnorm14_running_mean", 
      "attrs": {
        "__dtype__": "0", 
        "__init__": "zeros", 
        "__lr_mult__": "1.0", 
        "__shape__": "(1024,)", 
        "__storage_type__": "0", 
        "__wd_mult__": "1.0"
      }, 
      "inputs": []
    }, 
    {
      "op": "null", 
      "name": "east0_resnetv1d_layers3_batchnorm14_running_var", 
      "attrs": {
        "__dtype__": "0", 
        "__init__": "ones", 
        "__lr_mult__": "1.0", 
        "__shape__": "(1024,)", 
        "__storage_type__": "0", 
        "__wd_mult__": "1.0"
      }, 
      "inputs": []
    }, 
    {
      "op": "BatchNorm", 
      "name": "east0_resnetv1d_layers3_batchnorm14_fwd", 
      "attrs": {
        "axis": "1", 
        "eps": "1e-05", 
        "fix_gamma": "False", 
        "momentum": "0.9", 
        "use_global_stats": "False"
      }, 
      "inputs": [[343, 0, 0], [344, 0, 0], [345, 0, 0], [346, 0, 1], [347, 0, 1]]
    }, 
    {
      "op": "elemwise_add", 
      "name": "east0_resnetv1d_layers3_bottleneckv1b4__plus0", 
      "inputs": [[348, 0, 0], [325, 0, 0]]
    }, 
    {
      "op": "Activation", 
      "name": "east0_resnetv1d_layers3_relu14_fwd", 
      "attrs": {"act_type": "relu"}, 
      "inputs": [[349, 0, 0]]
    }, 
    {
      "op": "null", 
      "name": "east0_resnetv1d_layers3_conv15_weight", 
      "attrs": {
        "__dtype__": "0", 
        "__lr_mult__": "1.0", 
        "__shape__": "(256, 0, 1, 1)", 
        "__storage_type__": "0", 
        "__wd_mult__": "1.0"
      }, 
      "inputs": []
    }, 
    {
      "op": "Convolution", 
      "name": "east0_resnetv1d_layers3_conv15_fwd", 
      "attrs": {
        "dilate": "(1, 1)", 
        "kernel": "(1, 1)", 
        "layout": "NCHW", 
        "no_bias": "True", 
        "num_filter": "256", 
        "num_group": "1", 
        "pad": "(0, 0)", 
        "stride": "(1, 1)"
      }, 
      "inputs": [[350, 0, 0], [351, 0, 0]]
    }, 
    {
      "op": "null", 
      "name": "east0_resnetv1d_layers3_batchnorm15_gamma", 
      "attrs": {
        "__dtype__": "0", 
        "__init__": "ones", 
        "__lr_mult__": "1.0", 
        "__shape__": "(256,)", 
        "__storage_type__": "0", 
        "__wd_mult__": "1.0"
      }, 
      "inputs": []
    }, 
    {
      "op": "null", 
      "name": "east0_resnetv1d_layers3_batchnorm15_beta", 
      "attrs": {
        "__dtype__": "0", 
        "__init__": "zeros", 
        "__lr_mult__": "1.0", 
        "__shape__": "(256,)", 
        "__storage_type__": "0", 
        "__wd_mult__": "1.0"
      }, 
      "inputs": []
    }, 
    {
      "op": "null", 
      "name": "east0_resnetv1d_layers3_batchnorm15_running_mean", 
      "attrs": {
        "__dtype__": "0", 
        "__init__": "zeros", 
        "__lr_mult__": "1.0", 
        "__shape__": "(256,)", 
        "__storage_type__": "0", 
        "__wd_mult__": "1.0"
      }, 
      "inputs": []
    }, 
    {
      "op": "null", 
      "name": "east0_resnetv1d_layers3_batchnorm15_running_var", 
      "attrs": {
        "__dtype__": "0", 
        "__init__": "ones", 
        "__lr_mult__": "1.0", 
        "__shape__": "(256,)", 
        "__storage_type__": "0", 
        "__wd_mult__": "1.0"
      }, 
      "inputs": []
    }, 
    {
      "op": "BatchNorm", 
      "name": "east0_resnetv1d_layers3_batchnorm15_fwd", 
      "attrs": {
        "axis": "1", 
        "eps": "1e-05", 
        "fix_gamma": "False", 
        "momentum": "0.9", 
        "use_global_stats": "False"
      }, 
      "inputs": [[352, 0, 0], [353, 0, 0], [354, 0, 0], [355, 0, 1], [356, 0, 1]]
    }, 
    {
      "op": "Activation", 
      "name": "east0_resnetv1d_layers3_relu15_fwd", 
      "attrs": {"act_type": "relu"}, 
      "inputs": [[357, 0, 0]]
    }, 
    {
      "op": "null", 
      "name": "east0_resnetv1d_layers3_conv16_weight", 
      "attrs": {
        "__dtype__": "0", 
        "__lr_mult__": "1.0", 
        "__shape__": "(256, 0, 3, 3)", 
        "__storage_type__": "0", 
        "__wd_mult__": "1.0"
      }, 
      "inputs": []
    }, 
    {
      "op": "Convolution", 
      "name": "east0_resnetv1d_layers3_conv16_fwd", 
      "attrs": {
        "dilate": "(1, 1)", 
        "kernel": "(3, 3)", 
        "layout": "NCHW", 
        "no_bias": "True", 
        "num_filter": "256", 
        "num_group": "1", 
        "pad": "(1, 1)", 
        "stride": "(1, 1)"
      }, 
      "inputs": [[358, 0, 0], [359, 0, 0]]
    }, 
    {
      "op": "null", 
      "name": "east0_resnetv1d_layers3_batchnorm16_gamma", 
      "attrs": {
        "__dtype__": "0", 
        "__init__": "ones", 
        "__lr_mult__": "1.0", 
        "__shape__": "(256,)", 
        "__storage_type__": "0", 
        "__wd_mult__": "1.0"
      }, 
      "inputs": []
    }, 
    {
      "op": "null", 
      "name": "east0_resnetv1d_layers3_batchnorm16_beta", 
      "attrs": {
        "__dtype__": "0", 
        "__init__": "zeros", 
        "__lr_mult__": "1.0", 
        "__shape__": "(256,)", 
        "__storage_type__": "0", 
        "__wd_mult__": "1.0"
      }, 
      "inputs": []
    }, 
    {
      "op": "null", 
      "name": "east0_resnetv1d_layers3_batchnorm16_running_mean", 
      "attrs": {
        "__dtype__": "0", 
        "__init__": "zeros", 
        "__lr_mult__": "1.0", 
        "__shape__": "(256,)", 
        "__storage_type__": "0", 
        "__wd_mult__": "1.0"
      }, 
      "inputs": []
    }, 
    {
      "op": "null", 
      "name": "east0_resnetv1d_layers3_batchnorm16_running_var", 
      "attrs": {
        "__dtype__": "0", 
        "__init__": "ones", 
        "__lr_mult__": "1.0", 
        "__shape__": "(256,)", 
        "__storage_type__": "0", 
        "__wd_mult__": "1.0"
      }, 
      "inputs": []
    }, 
    {
      "op": "BatchNorm", 
      "name": "east0_resnetv1d_layers3_batchnorm16_fwd", 
      "attrs": {
        "axis": "1", 
        "eps": "1e-05", 
        "fix_gamma": "False", 
        "momentum": "0.9", 
        "use_global_stats": "False"
      }, 
      "inputs": [[360, 0, 0], [361, 0, 0], [362, 0, 0], [363, 0, 1], [364, 0, 1]]
    }, 
    {
      "op": "Activation", 
      "name": "east0_resnetv1d_layers3_relu16_fwd", 
      "attrs": {"act_type": "relu"}, 
      "inputs": [[365, 0, 0]]
    }, 
    {
      "op": "null", 
      "name": "east0_resnetv1d_layers3_conv17_weight", 
      "attrs": {
        "__dtype__": "0", 
        "__lr_mult__": "1.0", 
        "__shape__": "(1024, 0, 1, 1)", 
        "__storage_type__": "0", 
        "__wd_mult__": "1.0"
      }, 
      "inputs": []
    }, 
    {
      "op": "Convolution", 
      "name": "east0_resnetv1d_layers3_conv17_fwd", 
      "attrs": {
        "dilate": "(1, 1)", 
        "kernel": "(1, 1)", 
        "layout": "NCHW", 
        "no_bias": "True", 
        "num_filter": "1024", 
        "num_group": "1", 
        "pad": "(0, 0)", 
        "stride": "(1, 1)"
      }, 
      "inputs": [[366, 0, 0], [367, 0, 0]]
    }, 
    {
      "op": "null", 
      "name": "east0_resnetv1d_layers3_batchnorm17_gamma", 
      "attrs": {
        "__dtype__": "0", 
        "__init__": "ones", 
        "__lr_mult__": "1.0", 
        "__shape__": "(1024,)", 
        "__storage_type__": "0", 
        "__wd_mult__": "1.0"
      }, 
      "inputs": []
    }, 
    {
      "op": "null", 
      "name": "east0_resnetv1d_layers3_batchnorm17_beta", 
      "attrs": {
        "__dtype__": "0", 
        "__init__": "zeros", 
        "__lr_mult__": "1.0", 
        "__shape__": "(1024,)", 
        "__storage_type__": "0", 
        "__wd_mult__": "1.0"
      }, 
      "inputs": []
    }, 
    {
      "op": "null", 
      "name": "east0_resnetv1d_layers3_batchnorm17_running_mean", 
      "attrs": {
        "__dtype__": "0", 
        "__init__": "zeros", 
        "__lr_mult__": "1.0", 
        "__shape__": "(1024,)", 
        "__storage_type__": "0", 
        "__wd_mult__": "1.0"
      }, 
      "inputs": []
    }, 
    {
      "op": "null", 
      "name": "east0_resnetv1d_layers3_batchnorm17_running_var", 
      "attrs": {
        "__dtype__": "0", 
        "__init__": "ones", 
        "__lr_mult__": "1.0", 
        "__shape__": "(1024,)", 
        "__storage_type__": "0", 
        "__wd_mult__": "1.0"
      }, 
      "inputs": []
    }, 
    {
      "op": "BatchNorm", 
      "name": "east0_resnetv1d_layers3_batchnorm17_fwd", 
      "attrs": {
        "axis": "1", 
        "eps": "1e-05", 
        "fix_gamma": "False", 
        "momentum": "0.9", 
        "use_global_stats": "False"
      }, 
      "inputs": [[368, 0, 0], [369, 0, 0], [370, 0, 0], [371, 0, 1], [372, 0, 1]]
    }, 
    {
      "op": "elemwise_add", 
      "name": "east0_resnetv1d_layers3_bottleneckv1b5__plus0", 
      "inputs": [[373, 0, 0], [350, 0, 0]]
    }, 
    {
      "op": "Activation", 
      "name": "east0_resnetv1d_layers3_relu17_fwd", 
      "attrs": {"act_type": "relu"}, 
      "inputs": [[374, 0, 0]]
    }, 
    {
      "op": "null", 
      "name": "east0_resnetv1d_layers4_conv0_weight", 
      "attrs": {
        "__dtype__": "0", 
        "__lr_mult__": "1.0", 
        "__shape__": "(512, 0, 1, 1)", 
        "__storage_type__": "0", 
        "__wd_mult__": "1.0"
      }, 
      "inputs": []
    }, 
    {
      "op": "Convolution", 
      "name": "east0_resnetv1d_layers4_conv0_fwd", 
      "attrs": {
        "dilate": "(1, 1)", 
        "kernel": "(1, 1)", 
        "layout": "NCHW", 
        "no_bias": "True", 
        "num_filter": "512", 
        "num_group": "1", 
        "pad": "(0, 0)", 
        "stride": "(1, 1)"
      }, 
      "inputs": [[375, 0, 0], [376, 0, 0]]
    }, 
    {
      "op": "null", 
      "name": "east0_resnetv1d_layers4_batchnorm0_gamma", 
      "attrs": {
        "__dtype__": "0", 
        "__init__": "ones", 
        "__lr_mult__": "1.0", 
        "__shape__": "(512,)", 
        "__storage_type__": "0", 
        "__wd_mult__": "1.0"
      }, 
      "inputs": []
    }, 
    {
      "op": "null", 
      "name": "east0_resnetv1d_layers4_batchnorm0_beta", 
      "attrs": {
        "__dtype__": "0", 
        "__init__": "zeros", 
        "__lr_mult__": "1.0", 
        "__shape__": "(512,)", 
        "__storage_type__": "0", 
        "__wd_mult__": "1.0"
      }, 
      "inputs": []
    }, 
    {
      "op": "null", 
      "name": "east0_resnetv1d_layers4_batchnorm0_running_mean", 
      "attrs": {
        "__dtype__": "0", 
        "__init__": "zeros", 
        "__lr_mult__": "1.0", 
        "__shape__": "(512,)", 
        "__storage_type__": "0", 
        "__wd_mult__": "1.0"
      }, 
      "inputs": []
    }, 
    {
      "op": "null", 
      "name": "east0_resnetv1d_layers4_batchnorm0_running_var", 
      "attrs": {
        "__dtype__": "0", 
        "__init__": "ones", 
        "__lr_mult__": "1.0", 
        "__shape__": "(512,)", 
        "__storage_type__": "0", 
        "__wd_mult__": "1.0"
      }, 
      "inputs": []
    }, 
    {
      "op": "BatchNorm", 
      "name": "east0_resnetv1d_layers4_batchnorm0_fwd", 
      "attrs": {
        "axis": "1", 
        "eps": "1e-05", 
        "fix_gamma": "False", 
        "momentum": "0.9", 
        "use_global_stats": "False"
      }, 
      "inputs": [[377, 0, 0], [378, 0, 0], [379, 0, 0], [380, 0, 1], [381, 0, 1]]
    }, 
    {
      "op": "Activation", 
      "name": "east0_resnetv1d_layers4_relu0_fwd", 
      "attrs": {"act_type": "relu"}, 
      "inputs": [[382, 0, 0]]
    }, 
    {
      "op": "null", 
      "name": "east0_resnetv1d_layers4_conv1_weight", 
      "attrs": {
        "__dtype__": "0", 
        "__lr_mult__": "1.0", 
        "__shape__": "(512, 0, 3, 3)", 
        "__storage_type__": "0", 
        "__wd_mult__": "1.0"
      }, 
      "inputs": []
    }, 
    {
      "op": "Convolution", 
      "name": "east0_resnetv1d_layers4_conv1_fwd", 
      "attrs": {
        "dilate": "(1, 1)", 
        "kernel": "(3, 3)", 
        "layout": "NCHW", 
        "no_bias": "True", 
        "num_filter": "512", 
        "num_group": "1", 
        "pad": "(1, 1)", 
        "stride": "(2, 2)"
      }, 
      "inputs": [[383, 0, 0], [384, 0, 0]]
    }, 
    {
      "op": "null", 
      "name": "east0_resnetv1d_layers4_batchnorm1_gamma", 
      "attrs": {
        "__dtype__": "0", 
        "__init__": "ones", 
        "__lr_mult__": "1.0", 
        "__shape__": "(512,)", 
        "__storage_type__": "0", 
        "__wd_mult__": "1.0"
      }, 
      "inputs": []
    }, 
    {
      "op": "null", 
      "name": "east0_resnetv1d_layers4_batchnorm1_beta", 
      "attrs": {
        "__dtype__": "0", 
        "__init__": "zeros", 
        "__lr_mult__": "1.0", 
        "__shape__": "(512,)", 
        "__storage_type__": "0", 
        "__wd_mult__": "1.0"
      }, 
      "inputs": []
    }, 
    {
      "op": "null", 
      "name": "east0_resnetv1d_layers4_batchnorm1_running_mean", 
      "attrs": {
        "__dtype__": "0", 
        "__init__": "zeros", 
        "__lr_mult__": "1.0", 
        "__shape__": "(512,)", 
        "__storage_type__": "0", 
        "__wd_mult__": "1.0"
      }, 
      "inputs": []
    }, 
    {
      "op": "null", 
      "name": "east0_resnetv1d_layers4_batchnorm1_running_var", 
      "attrs": {
        "__dtype__": "0", 
        "__init__": "ones", 
        "__lr_mult__": "1.0", 
        "__shape__": "(512,)", 
        "__storage_type__": "0", 
        "__wd_mult__": "1.0"
      }, 
      "inputs": []
    }, 
    {
      "op": "BatchNorm", 
      "name": "east0_resnetv1d_layers4_batchnorm1_fwd", 
      "attrs": {
        "axis": "1", 
        "eps": "1e-05", 
        "fix_gamma": "False", 
        "momentum": "0.9", 
        "use_global_stats": "False"
      }, 
      "inputs": [[385, 0, 0], [386, 0, 0], [387, 0, 0], [388, 0, 1], [389, 0, 1]]
    }, 
    {
      "op": "Activation", 
      "name": "east0_resnetv1d_layers4_relu1_fwd", 
      "attrs": {"act_type": "relu"}, 
      "inputs": [[390, 0, 0]]
    }, 
    {
      "op": "null", 
      "name": "east0_resnetv1d_layers4_conv2_weight", 
      "attrs": {
        "__dtype__": "0", 
        "__lr_mult__": "1.0", 
        "__shape__": "(2048, 0, 1, 1)", 
        "__storage_type__": "0", 
        "__wd_mult__": "1.0"
      }, 
      "inputs": []
    }, 
    {
      "op": "Convolution", 
      "name": "east0_resnetv1d_layers4_conv2_fwd", 
      "attrs": {
        "dilate": "(1, 1)", 
        "kernel": "(1, 1)", 
        "layout": "NCHW", 
        "no_bias": "True", 
        "num_filter": "2048", 
        "num_group": "1", 
        "pad": "(0, 0)", 
        "stride": "(1, 1)"
      }, 
      "inputs": [[391, 0, 0], [392, 0, 0]]
    }, 
    {
      "op": "null", 
      "name": "east0_resnetv1d_layers4_batchnorm2_gamma", 
      "attrs": {
        "__dtype__": "0", 
        "__init__": "ones", 
        "__lr_mult__": "1.0", 
        "__shape__": "(2048,)", 
        "__storage_type__": "0", 
        "__wd_mult__": "1.0"
      }, 
      "inputs": []
    }, 
    {
      "op": "null", 
      "name": "east0_resnetv1d_layers4_batchnorm2_beta", 
      "attrs": {
        "__dtype__": "0", 
        "__init__": "zeros", 
        "__lr_mult__": "1.0", 
        "__shape__": "(2048,)", 
        "__storage_type__": "0", 
        "__wd_mult__": "1.0"
      }, 
      "inputs": []
    }, 
    {
      "op": "null", 
      "name": "east0_resnetv1d_layers4_batchnorm2_running_mean", 
      "attrs": {
        "__dtype__": "0", 
        "__init__": "zeros", 
        "__lr_mult__": "1.0", 
        "__shape__": "(2048,)", 
        "__storage_type__": "0", 
        "__wd_mult__": "1.0"
      }, 
      "inputs": []
    }, 
    {
      "op": "null", 
      "name": "east0_resnetv1d_layers4_batchnorm2_running_var", 
      "attrs": {
        "__dtype__": "0", 
        "__init__": "ones", 
        "__lr_mult__": "1.0", 
        "__shape__": "(2048,)", 
        "__storage_type__": "0", 
        "__wd_mult__": "1.0"
      }, 
      "inputs": []
    }, 
    {
      "op": "BatchNorm", 
      "name": "east0_resnetv1d_layers4_batchnorm2_fwd", 
      "attrs": {
        "axis": "1", 
        "eps": "1e-05", 
        "fix_gamma": "False", 
        "momentum": "0.9", 
        "use_global_stats": "False"
      }, 
      "inputs": [[393, 0, 0], [394, 0, 0], [395, 0, 0], [396, 0, 1], [397, 0, 1]]
    }, 
    {
      "op": "Pooling", 
      "name": "east0_resnetv1d_down4_pool0_fwd", 
      "attrs": {
        "count_include_pad": "False", 
        "global_pool": "False", 
        "kernel": "(2, 2)", 
        "pad": "(0, 0)", 
        "pool_type": "avg", 
        "pooling_convention": "full", 
        "stride": "(2, 2)"
      }, 
      "inputs": [[375, 0, 0]]
    }, 
    {
      "op": "null", 
      "name": "east0_resnetv1d_down4_conv0_weight", 
      "attrs": {
        "__dtype__": "0", 
        "__lr_mult__": "1.0", 
        "__shape__": "(2048, 0, 1, 1)", 
        "__storage_type__": "0", 
        "__wd_mult__": "1.0"
      }, 
      "inputs": []
    }, 
    {
      "op": "Convolution", 
      "name": "east0_resnetv1d_down4_conv0_fwd", 
      "attrs": {
        "dilate": "(1, 1)", 
        "kernel": "(1, 1)", 
        "layout": "NCHW", 
        "no_bias": "True", 
        "num_filter": "2048", 
        "num_group": "1", 
        "pad": "(0, 0)", 
        "stride": "(1, 1)"
      }, 
      "inputs": [[399, 0, 0], [400, 0, 0]]
    }, 
    {
      "op": "null", 
      "name": "east0_resnetv1d_down4_batchnorm0_gamma", 
      "attrs": {
        "__dtype__": "0", 
        "__init__": "ones", 
        "__lr_mult__": "1.0", 
        "__shape__": "(2048,)", 
        "__storage_type__": "0", 
        "__wd_mult__": "1.0"
      }, 
      "inputs": []
    }, 
    {
      "op": "null", 
      "name": "east0_resnetv1d_down4_batchnorm0_beta", 
      "attrs": {
        "__dtype__": "0", 
        "__init__": "zeros", 
        "__lr_mult__": "1.0", 
        "__shape__": "(2048,)", 
        "__storage_type__": "0", 
        "__wd_mult__": "1.0"
      }, 
      "inputs": []
    }, 
    {
      "op": "null", 
      "name": "east0_resnetv1d_down4_batchnorm0_running_mean", 
      "attrs": {
        "__dtype__": "0", 
        "__init__": "zeros", 
        "__lr_mult__": "1.0", 
        "__shape__": "(2048,)", 
        "__storage_type__": "0", 
        "__wd_mult__": "1.0"
      }, 
      "inputs": []
    }, 
    {
      "op": "null", 
      "name": "east0_resnetv1d_down4_batchnorm0_running_var", 
      "attrs": {
        "__dtype__": "0", 
        "__init__": "ones", 
        "__lr_mult__": "1.0", 
        "__shape__": "(2048,)", 
        "__storage_type__": "0", 
        "__wd_mult__": "1.0"
      }, 
      "inputs": []
    }, 
    {
      "op": "BatchNorm", 
      "name": "east0_resnetv1d_down4_batchnorm0_fwd", 
      "attrs": {
        "axis": "1", 
        "eps": "1e-05", 
        "fix_gamma": "False", 
        "momentum": "0.9", 
        "use_global_stats": "False"
      }, 
      "inputs": [[401, 0, 0], [402, 0, 0], [403, 0, 0], [404, 0, 1], [405, 0, 1]]
    }, 
    {
      "op": "elemwise_add", 
      "name": "east0_resnetv1d_layers4_bottleneckv1b0__plus0", 
      "inputs": [[398, 0, 0], [406, 0, 0]]
    }, 
    {
      "op": "Activation", 
      "name": "east0_resnetv1d_layers4_relu2_fwd", 
      "attrs": {"act_type": "relu"}, 
      "inputs": [[407, 0, 0]]
    }, 
    {
      "op": "null", 
      "name": "east0_resnetv1d_layers4_conv3_weight", 
      "attrs": {
        "__dtype__": "0", 
        "__lr_mult__": "1.0", 
        "__shape__": "(512, 0, 1, 1)", 
        "__storage_type__": "0", 
        "__wd_mult__": "1.0"
      }, 
      "inputs": []
    }, 
    {
      "op": "Convolution", 
      "name": "east0_resnetv1d_layers4_conv3_fwd", 
      "attrs": {
        "dilate": "(1, 1)", 
        "kernel": "(1, 1)", 
        "layout": "NCHW", 
        "no_bias": "True", 
        "num_filter": "512", 
        "num_group": "1", 
        "pad": "(0, 0)", 
        "stride": "(1, 1)"
      }, 
      "inputs": [[408, 0, 0], [409, 0, 0]]
    }, 
    {
      "op": "null", 
      "name": "east0_resnetv1d_layers4_batchnorm3_gamma", 
      "attrs": {
        "__dtype__": "0", 
        "__init__": "ones", 
        "__lr_mult__": "1.0", 
        "__shape__": "(512,)", 
        "__storage_type__": "0", 
        "__wd_mult__": "1.0"
      }, 
      "inputs": []
    }, 
    {
      "op": "null", 
      "name": "east0_resnetv1d_layers4_batchnorm3_beta", 
      "attrs": {
        "__dtype__": "0", 
        "__init__": "zeros", 
        "__lr_mult__": "1.0", 
        "__shape__": "(512,)", 
        "__storage_type__": "0", 
        "__wd_mult__": "1.0"
      }, 
      "inputs": []
    }, 
    {
      "op": "null", 
      "name": "east0_resnetv1d_layers4_batchnorm3_running_mean", 
      "attrs": {
        "__dtype__": "0", 
        "__init__": "zeros", 
        "__lr_mult__": "1.0", 
        "__shape__": "(512,)", 
        "__storage_type__": "0", 
        "__wd_mult__": "1.0"
      }, 
      "inputs": []
    }, 
    {
      "op": "null", 
      "name": "east0_resnetv1d_layers4_batchnorm3_running_var", 
      "attrs": {
        "__dtype__": "0", 
        "__init__": "ones", 
        "__lr_mult__": "1.0", 
        "__shape__": "(512,)", 
        "__storage_type__": "0", 
        "__wd_mult__": "1.0"
      }, 
      "inputs": []
    }, 
    {
      "op": "BatchNorm", 
      "name": "east0_resnetv1d_layers4_batchnorm3_fwd", 
      "attrs": {
        "axis": "1", 
        "eps": "1e-05", 
        "fix_gamma": "False", 
        "momentum": "0.9", 
        "use_global_stats": "False"
      }, 
      "inputs": [[410, 0, 0], [411, 0, 0], [412, 0, 0], [413, 0, 1], [414, 0, 1]]
    }, 
    {
      "op": "Activation", 
      "name": "east0_resnetv1d_layers4_relu3_fwd", 
      "attrs": {"act_type": "relu"}, 
      "inputs": [[415, 0, 0]]
    }, 
    {
      "op": "null", 
      "name": "east0_resnetv1d_layers4_conv4_weight", 
      "attrs": {
        "__dtype__": "0", 
        "__lr_mult__": "1.0", 
        "__shape__": "(512, 0, 3, 3)", 
        "__storage_type__": "0", 
        "__wd_mult__": "1.0"
      }, 
      "inputs": []
    }, 
    {
      "op": "Convolution", 
      "name": "east0_resnetv1d_layers4_conv4_fwd", 
      "attrs": {
        "dilate": "(1, 1)", 
        "kernel": "(3, 3)", 
        "layout": "NCHW", 
        "no_bias": "True", 
        "num_filter": "512", 
        "num_group": "1", 
        "pad": "(1, 1)", 
        "stride": "(1, 1)"
      }, 
      "inputs": [[416, 0, 0], [417, 0, 0]]
    }, 
    {
      "op": "null", 
      "name": "east0_resnetv1d_layers4_batchnorm4_gamma", 
      "attrs": {
        "__dtype__": "0", 
        "__init__": "ones", 
        "__lr_mult__": "1.0", 
        "__shape__": "(512,)", 
        "__storage_type__": "0", 
        "__wd_mult__": "1.0"
      }, 
      "inputs": []
    }, 
    {
      "op": "null", 
      "name": "east0_resnetv1d_layers4_batchnorm4_beta", 
      "attrs": {
        "__dtype__": "0", 
        "__init__": "zeros", 
        "__lr_mult__": "1.0", 
        "__shape__": "(512,)", 
        "__storage_type__": "0", 
        "__wd_mult__": "1.0"
      }, 
      "inputs": []
    }, 
    {
      "op": "null", 
      "name": "east0_resnetv1d_layers4_batchnorm4_running_mean", 
      "attrs": {
        "__dtype__": "0", 
        "__init__": "zeros", 
        "__lr_mult__": "1.0", 
        "__shape__": "(512,)", 
        "__storage_type__": "0", 
        "__wd_mult__": "1.0"
      }, 
      "inputs": []
    }, 
    {
      "op": "null", 
      "name": "east0_resnetv1d_layers4_batchnorm4_running_var", 
      "attrs": {
        "__dtype__": "0", 
        "__init__": "ones", 
        "__lr_mult__": "1.0", 
        "__shape__": "(512,)", 
        "__storage_type__": "0", 
        "__wd_mult__": "1.0"
      }, 
      "inputs": []
    }, 
    {
      "op": "BatchNorm", 
      "name": "east0_resnetv1d_layers4_batchnorm4_fwd", 
      "attrs": {
        "axis": "1", 
        "eps": "1e-05", 
        "fix_gamma": "False", 
        "momentum": "0.9", 
        "use_global_stats": "False"
      }, 
      "inputs": [[418, 0, 0], [419, 0, 0], [420, 0, 0], [421, 0, 1], [422, 0, 1]]
    }, 
    {
      "op": "Activation", 
      "name": "east0_resnetv1d_layers4_relu4_fwd", 
      "attrs": {"act_type": "relu"}, 
      "inputs": [[423, 0, 0]]
    }, 
    {
      "op": "null", 
      "name": "east0_resnetv1d_layers4_conv5_weight", 
      "attrs": {
        "__dtype__": "0", 
        "__lr_mult__": "1.0", 
        "__shape__": "(2048, 0, 1, 1)", 
        "__storage_type__": "0", 
        "__wd_mult__": "1.0"
      }, 
      "inputs": []
    }, 
    {
      "op": "Convolution", 
      "name": "east0_resnetv1d_layers4_conv5_fwd", 
      "attrs": {
        "dilate": "(1, 1)", 
        "kernel": "(1, 1)", 
        "layout": "NCHW", 
        "no_bias": "True", 
        "num_filter": "2048", 
        "num_group": "1", 
        "pad": "(0, 0)", 
        "stride": "(1, 1)"
      }, 
      "inputs": [[424, 0, 0], [425, 0, 0]]
    }, 
    {
      "op": "null", 
      "name": "east0_resnetv1d_layers4_batchnorm5_gamma", 
      "attrs": {
        "__dtype__": "0", 
        "__init__": "ones", 
        "__lr_mult__": "1.0", 
        "__shape__": "(2048,)", 
        "__storage_type__": "0", 
        "__wd_mult__": "1.0"
      }, 
      "inputs": []
    }, 
    {
      "op": "null", 
      "name": "east0_resnetv1d_layers4_batchnorm5_beta", 
      "attrs": {
        "__dtype__": "0", 
        "__init__": "zeros", 
        "__lr_mult__": "1.0", 
        "__shape__": "(2048,)", 
        "__storage_type__": "0", 
        "__wd_mult__": "1.0"
      }, 
      "inputs": []
    }, 
    {
      "op": "null", 
      "name": "east0_resnetv1d_layers4_batchnorm5_running_mean", 
      "attrs": {
        "__dtype__": "0", 
        "__init__": "zeros", 
        "__lr_mult__": "1.0", 
        "__shape__": "(2048,)", 
        "__storage_type__": "0", 
        "__wd_mult__": "1.0"
      }, 
      "inputs": []
    }, 
    {
      "op": "null", 
      "name": "east0_resnetv1d_layers4_batchnorm5_running_var", 
      "attrs": {
        "__dtype__": "0", 
        "__init__": "ones", 
        "__lr_mult__": "1.0", 
        "__shape__": "(2048,)", 
        "__storage_type__": "0", 
        "__wd_mult__": "1.0"
      }, 
      "inputs": []
    }, 
    {
      "op": "BatchNorm", 
      "name": "east0_resnetv1d_layers4_batchnorm5_fwd", 
      "attrs": {
        "axis": "1", 
        "eps": "1e-05", 
        "fix_gamma": "False", 
        "momentum": "0.9", 
        "use_global_stats": "False"
      }, 
      "inputs": [[426, 0, 0], [427, 0, 0], [428, 0, 0], [429, 0, 1], [430, 0, 1]]
    }, 
    {
      "op": "elemwise_add", 
      "name": "east0_resnetv1d_layers4_bottleneckv1b1__plus0", 
      "inputs": [[431, 0, 0], [408, 0, 0]]
    }, 
    {
      "op": "Activation", 
      "name": "east0_resnetv1d_layers4_relu5_fwd", 
      "attrs": {"act_type": "relu"}, 
      "inputs": [[432, 0, 0]]
    }, 
    {
      "op": "null", 
      "name": "east0_resnetv1d_layers4_conv6_weight", 
      "attrs": {
        "__dtype__": "0", 
        "__lr_mult__": "1.0", 
        "__shape__": "(512, 0, 1, 1)", 
        "__storage_type__": "0", 
        "__wd_mult__": "1.0"
      }, 
      "inputs": []
    }, 
    {
      "op": "Convolution", 
      "name": "east0_resnetv1d_layers4_conv6_fwd", 
      "attrs": {
        "dilate": "(1, 1)", 
        "kernel": "(1, 1)", 
        "layout": "NCHW", 
        "no_bias": "True", 
        "num_filter": "512", 
        "num_group": "1", 
        "pad": "(0, 0)", 
        "stride": "(1, 1)"
      }, 
      "inputs": [[433, 0, 0], [434, 0, 0]]
    }, 
    {
      "op": "null", 
      "name": "east0_resnetv1d_layers4_batchnorm6_gamma", 
      "attrs": {
        "__dtype__": "0", 
        "__init__": "ones", 
        "__lr_mult__": "1.0", 
        "__shape__": "(512,)", 
        "__storage_type__": "0", 
        "__wd_mult__": "1.0"
      }, 
      "inputs": []
    }, 
    {
      "op": "null", 
      "name": "east0_resnetv1d_layers4_batchnorm6_beta", 
      "attrs": {
        "__dtype__": "0", 
        "__init__": "zeros", 
        "__lr_mult__": "1.0", 
        "__shape__": "(512,)", 
        "__storage_type__": "0", 
        "__wd_mult__": "1.0"
      }, 
      "inputs": []
    }, 
    {
      "op": "null", 
      "name": "east0_resnetv1d_layers4_batchnorm6_running_mean", 
      "attrs": {
        "__dtype__": "0", 
        "__init__": "zeros", 
        "__lr_mult__": "1.0", 
        "__shape__": "(512,)", 
        "__storage_type__": "0", 
        "__wd_mult__": "1.0"
      }, 
      "inputs": []
    }, 
    {
      "op": "null", 
      "name": "east0_resnetv1d_layers4_batchnorm6_running_var", 
      "attrs": {
        "__dtype__": "0", 
        "__init__": "ones", 
        "__lr_mult__": "1.0", 
        "__shape__": "(512,)", 
        "__storage_type__": "0", 
        "__wd_mult__": "1.0"
      }, 
      "inputs": []
    }, 
    {
      "op": "BatchNorm", 
      "name": "east0_resnetv1d_layers4_batchnorm6_fwd", 
      "attrs": {
        "axis": "1", 
        "eps": "1e-05", 
        "fix_gamma": "False", 
        "momentum": "0.9", 
        "use_global_stats": "False"
      }, 
      "inputs": [[435, 0, 0], [436, 0, 0], [437, 0, 0], [438, 0, 1], [439, 0, 1]]
    }, 
    {
      "op": "Activation", 
      "name": "east0_resnetv1d_layers4_relu6_fwd", 
      "attrs": {"act_type": "relu"}, 
      "inputs": [[440, 0, 0]]
    }, 
    {
      "op": "null", 
      "name": "east0_resnetv1d_layers4_conv7_weight", 
      "attrs": {
        "__dtype__": "0", 
        "__lr_mult__": "1.0", 
        "__shape__": "(512, 0, 3, 3)", 
        "__storage_type__": "0", 
        "__wd_mult__": "1.0"
      }, 
      "inputs": []
    }, 
    {
      "op": "Convolution", 
      "name": "east0_resnetv1d_layers4_conv7_fwd", 
      "attrs": {
        "dilate": "(1, 1)", 
        "kernel": "(3, 3)", 
        "layout": "NCHW", 
        "no_bias": "True", 
        "num_filter": "512", 
        "num_group": "1", 
        "pad": "(1, 1)", 
        "stride": "(1, 1)"
      }, 
      "inputs": [[441, 0, 0], [442, 0, 0]]
    }, 
    {
      "op": "null", 
      "name": "east0_resnetv1d_layers4_batchnorm7_gamma", 
      "attrs": {
        "__dtype__": "0", 
        "__init__": "ones", 
        "__lr_mult__": "1.0", 
        "__shape__": "(512,)", 
        "__storage_type__": "0", 
        "__wd_mult__": "1.0"
      }, 
      "inputs": []
    }, 
    {
      "op": "null", 
      "name": "east0_resnetv1d_layers4_batchnorm7_beta", 
      "attrs": {
        "__dtype__": "0", 
        "__init__": "zeros", 
        "__lr_mult__": "1.0", 
        "__shape__": "(512,)", 
        "__storage_type__": "0", 
        "__wd_mult__": "1.0"
      }, 
      "inputs": []
    }, 
    {
      "op": "null", 
      "name": "east0_resnetv1d_layers4_batchnorm7_running_mean", 
      "attrs": {
        "__dtype__": "0", 
        "__init__": "zeros", 
        "__lr_mult__": "1.0", 
        "__shape__": "(512,)", 
        "__storage_type__": "0", 
        "__wd_mult__": "1.0"
      }, 
      "inputs": []
    }, 
    {
      "op": "null", 
      "name": "east0_resnetv1d_layers4_batchnorm7_running_var", 
      "attrs": {
        "__dtype__": "0", 
        "__init__": "ones", 
        "__lr_mult__": "1.0", 
        "__shape__": "(512,)", 
        "__storage_type__": "0", 
        "__wd_mult__": "1.0"
      }, 
      "inputs": []
    }, 
    {
      "op": "BatchNorm", 
      "name": "east0_resnetv1d_layers4_batchnorm7_fwd", 
      "attrs": {
        "axis": "1", 
        "eps": "1e-05", 
        "fix_gamma": "False", 
        "momentum": "0.9", 
        "use_global_stats": "False"
      }, 
      "inputs": [[443, 0, 0], [444, 0, 0], [445, 0, 0], [446, 0, 1], [447, 0, 1]]
    }, 
    {
      "op": "Activation", 
      "name": "east0_resnetv1d_layers4_relu7_fwd", 
      "attrs": {"act_type": "relu"}, 
      "inputs": [[448, 0, 0]]
    }, 
    {
      "op": "null", 
      "name": "east0_resnetv1d_layers4_conv8_weight", 
      "attrs": {
        "__dtype__": "0", 
        "__lr_mult__": "1.0", 
        "__shape__": "(2048, 0, 1, 1)", 
        "__storage_type__": "0", 
        "__wd_mult__": "1.0"
      }, 
      "inputs": []
    }, 
    {
      "op": "Convolution", 
      "name": "east0_resnetv1d_layers4_conv8_fwd", 
      "attrs": {
        "dilate": "(1, 1)", 
        "kernel": "(1, 1)", 
        "layout": "NCHW", 
        "no_bias": "True", 
        "num_filter": "2048", 
        "num_group": "1", 
        "pad": "(0, 0)", 
        "stride": "(1, 1)"
      }, 
      "inputs": [[449, 0, 0], [450, 0, 0]]
    }, 
    {
      "op": "null", 
      "name": "east0_resnetv1d_layers4_batchnorm8_gamma", 
      "attrs": {
        "__dtype__": "0", 
        "__init__": "ones", 
        "__lr_mult__": "1.0", 
        "__shape__": "(2048,)", 
        "__storage_type__": "0", 
        "__wd_mult__": "1.0"
      }, 
      "inputs": []
    }, 
    {
      "op": "null", 
      "name": "east0_resnetv1d_layers4_batchnorm8_beta", 
      "attrs": {
        "__dtype__": "0", 
        "__init__": "zeros", 
        "__lr_mult__": "1.0", 
        "__shape__": "(2048,)", 
        "__storage_type__": "0", 
        "__wd_mult__": "1.0"
      }, 
      "inputs": []
    }, 
    {
      "op": "null", 
      "name": "east0_resnetv1d_layers4_batchnorm8_running_mean", 
      "attrs": {
        "__dtype__": "0", 
        "__init__": "zeros", 
        "__lr_mult__": "1.0", 
        "__shape__": "(2048,)", 
        "__storage_type__": "0", 
        "__wd_mult__": "1.0"
      }, 
      "inputs": []
    }, 
    {
      "op": "null", 
      "name": "east0_resnetv1d_layers4_batchnorm8_running_var", 
      "attrs": {
        "__dtype__": "0", 
        "__init__": "ones", 
        "__lr_mult__": "1.0", 
        "__shape__": "(2048,)", 
        "__storage_type__": "0", 
        "__wd_mult__": "1.0"
      }, 
      "inputs": []
    }, 
    {
      "op": "BatchNorm", 
      "name": "east0_resnetv1d_layers4_batchnorm8_fwd", 
      "attrs": {
        "axis": "1", 
        "eps": "1e-05", 
        "fix_gamma": "False", 
        "momentum": "0.9", 
        "use_global_stats": "False"
      }, 
      "inputs": [[451, 0, 0], [452, 0, 0], [453, 0, 0], [454, 0, 1], [455, 0, 1]]
    }, 
    {
      "op": "elemwise_add", 
      "name": "east0_resnetv1d_layers4_bottleneckv1b2__plus0", 
      "inputs": [[456, 0, 0], [433, 0, 0]]
    }, 
    {
      "op": "Activation", 
      "name": "east0_resnetv1d_layers4_relu8_fwd", 
      "attrs": {"act_type": "relu"}, 
      "inputs": [[457, 0, 0]]
    }, 
    {
      "op": "null", 
      "name": "east0_P5_conv_lat_weight", 
      "attrs": {
        "__init__": "<mxnet.initializer.Xavier object at 0x7f593f7e2b70>", 
        "kernel": "(1, 1)", 
        "no_bias": "False", 
        "num_filter": "128", 
        "pad": "(0, 0)", 
        "stride": "(1, 1)"
      }, 
      "inputs": []
    }, 
    {
      "op": "null", 
      "name": "east0_P5_conv_lat_bias", 
      "attrs": {
        "__init__": "<mxnet.initializer.Xavier object at 0x7f593f7e2b70>", 
        "kernel": "(1, 1)", 
        "no_bias": "False", 
        "num_filter": "128", 
        "pad": "(0, 0)", 
        "stride": "(1, 1)"
      }, 
      "inputs": []
    }, 
    {
      "op": "Convolution", 
      "name": "east0_P5_conv_lat", 
      "attrs": {
        "__init__": "<mxnet.initializer.Xavier object at 0x7f593f7e2b70>", 
        "kernel": "(1, 1)", 
        "no_bias": "False", 
        "num_filter": "128", 
        "pad": "(0, 0)", 
        "stride": "(1, 1)"
      }, 
      "inputs": [[458, 0, 0], [459, 0, 0], [460, 0, 0]]
    }, 
    {
      "op": "null", 
      "name": "east0_P4_deconv_weight", 
      "attrs": {
        "adj": "(1, 1)", 
        "kernel": "(3, 3)", 
        "num_filter": "128", 
        "pad": "(1, 1)", 
        "stride": "(2, 2)"
      }, 
      "inputs": []
    }, 
    {
      "op": "Deconvolution", 
      "name": "east0_P4_deconv", 
      "attrs": {
        "adj": "(1, 1)", 
        "kernel": "(3, 3)", 
        "num_filter": "128", 
        "pad": "(1, 1)", 
        "stride": "(2, 2)"
      }, 
      "inputs": [[461, 0, 0], [462, 0, 0]]
    }, 
    {
      "op": "null", 
      "name": "east0_P4_conv_lat_weight", 
      "attrs": {
        "__init__": "<mxnet.initializer.Xavier object at 0x7f593f7e2b70>", 
        "kernel": "(1, 1)", 
        "no_bias": "False", 
        "num_filter": "128", 
        "pad": "(0, 0)", 
        "stride": "(1, 1)"
      }, 
      "inputs": []
    }, 
    {
      "op": "null", 
      "name": "east0_P4_conv_lat_bias", 
      "attrs": {
        "__init__": "<mxnet.initializer.Xavier object at 0x7f593f7e2b70>", 
        "kernel": "(1, 1)", 
        "no_bias": "False", 
        "num_filter": "128", 
        "pad": "(0, 0)", 
        "stride": "(1, 1)"
      }, 
      "inputs": []
    }, 
    {
      "op": "Convolution", 
      "name": "east0_P4_conv_lat", 
      "attrs": {
        "__init__": "<mxnet.initializer.Xavier object at 0x7f593f7e2b70>", 
        "kernel": "(1, 1)", 
        "no_bias": "False", 
        "num_filter": "128", 
        "pad": "(0, 0)", 
        "stride": "(1, 1)"
      }, 
      "inputs": [[375, 0, 0], [464, 0, 0], [465, 0, 0]]
    }, 
    {
      "op": "Concat", 
      "name": "east0_P4_concat", 
      "attrs": {
        "dim": "1", 
        "num_args": "2"
      }, 
      "inputs": [[463, 0, 0], [466, 0, 0]]
    }, 
    {
      "op": "null", 
      "name": "east0_P3_deconv_weight", 
      "attrs": {
        "adj": "(1, 1)", 
        "kernel": "(3, 3)", 
        "num_filter": "128", 
        "pad": "(1, 1)", 
        "stride": "(2, 2)"
      }, 
      "inputs": []
    }, 
    {
      "op": "Deconvolution", 
      "name": "east0_P3_deconv", 
      "attrs": {
        "adj": "(1, 1)", 
        "kernel": "(3, 3)", 
        "num_filter": "128", 
        "pad": "(1, 1)", 
        "stride": "(2, 2)"
      }, 
      "inputs": [[467, 0, 0], [468, 0, 0]]
    }, 
    {
      "op": "null", 
      "name": "east0_P3_conv_lat_weight", 
      "attrs": {
        "__init__": "<mxnet.initializer.Xavier object at 0x7f593f7e2b70>", 
        "kernel": "(1, 1)", 
        "no_bias": "False", 
        "num_filter": "128", 
        "pad": "(0, 0)", 
        "stride": "(1, 1)"
      }, 
      "inputs": []
    }, 
    {
      "op": "null", 
      "name": "east0_P3_conv_lat_bias", 
      "attrs": {
        "__init__": "<mxnet.initializer.Xavier object at 0x7f593f7e2b70>", 
        "kernel": "(1, 1)", 
        "no_bias": "False", 
        "num_filter": "128", 
        "pad": "(0, 0)", 
        "stride": "(1, 1)"
      }, 
      "inputs": []
    }, 
    {
      "op": "Convolution", 
      "name": "east0_P3_conv_lat", 
      "attrs": {
        "__init__": "<mxnet.initializer.Xavier object at 0x7f593f7e2b70>", 
        "kernel": "(1, 1)", 
        "no_bias": "False", 
        "num_filter": "128", 
        "pad": "(0, 0)", 
        "stride": "(1, 1)"
      }, 
      "inputs": [[217, 0, 0], [470, 0, 0], [471, 0, 0]]
    }, 
    {
      "op": "Concat", 
      "name": "east0_P3_concat", 
      "attrs": {
        "dim": "1", 
        "num_args": "2"
      }, 
      "inputs": [[469, 0, 0], [472, 0, 0]]
    }, 
    {
      "op": "null", 
      "name": "east0_P2_deconv_weight", 
      "attrs": {
        "adj": "(1, 1)", 
        "kernel": "(3, 3)", 
        "num_filter": "128", 
        "pad": "(1, 1)", 
        "stride": "(2, 2)"
      }, 
      "inputs": []
    }, 
    {
      "op": "Deconvolution", 
      "name": "east0_P2_deconv", 
      "attrs": {
        "adj": "(1, 1)", 
        "kernel": "(3, 3)", 
        "num_filter": "128", 
        "pad": "(1, 1)", 
        "stride": "(2, 2)"
      }, 
      "inputs": [[473, 0, 0], [474, 0, 0]]
    }, 
    {
      "op": "null", 
      "name": "east0_P2_conv_lat_weight", 
      "attrs": {
        "__init__": "<mxnet.initializer.Xavier object at 0x7f593f7e2b70>", 
        "kernel": "(1, 1)", 
        "no_bias": "False", 
        "num_filter": "128", 
        "pad": "(0, 0)", 
        "stride": "(1, 1)"
      }, 
      "inputs": []
    }, 
    {
      "op": "null", 
      "name": "east0_P2_conv_lat_bias", 
      "attrs": {
        "__init__": "<mxnet.initializer.Xavier object at 0x7f593f7e2b70>", 
        "kernel": "(1, 1)", 
        "no_bias": "False", 
        "num_filter": "128", 
        "pad": "(0, 0)", 
        "stride": "(1, 1)"
      }, 
      "inputs": []
    }, 
    {
      "op": "Convolution", 
      "name": "east0_P2_conv_lat", 
      "attrs": {
        "__init__": "<mxnet.initializer.Xavier object at 0x7f593f7e2b70>", 
        "kernel": "(1, 1)", 
        "no_bias": "False", 
        "num_filter": "128", 
        "pad": "(0, 0)", 
        "stride": "(1, 1)"
      }, 
      "inputs": [[109, 0, 0], [476, 0, 0], [477, 0, 0]]
    }, 
    {
      "op": "Concat", 
      "name": "east0_P2_concat", 
      "attrs": {
        "dim": "1", 
        "num_args": "2"
      }, 
      "inputs": [[475, 0, 0], [478, 0, 0]]
    }, 
    {
      "op": "null", 
      "name": "east0_P2_conv1_weight", 
      "attrs": {
        "__init__": "<mxnet.initializer.Xavier object at 0x7f593f7e2b70>", 
        "kernel": "(3, 3)", 
        "no_bias": "False", 
        "num_filter": "128", 
        "pad": "(1, 1)", 
        "stride": "(1, 1)"
      }, 
      "inputs": []
    }, 
    {
      "op": "null", 
      "name": "east0_P2_conv1_bias", 
      "attrs": {
        "__init__": "<mxnet.initializer.Xavier object at 0x7f593f7e2b70>", 
        "kernel": "(3, 3)", 
        "no_bias": "False", 
        "num_filter": "128", 
        "pad": "(1, 1)", 
        "stride": "(1, 1)"
      }, 
      "inputs": []
    }, 
    {
      "op": "Convolution", 
      "name": "east0_P2_conv1", 
      "attrs": {
        "__init__": "<mxnet.initializer.Xavier object at 0x7f593f7e2b70>", 
        "kernel": "(3, 3)", 
        "no_bias": "False", 
        "num_filter": "128", 
        "pad": "(1, 1)", 
        "stride": "(1, 1)"
      }, 
      "inputs": [[479, 0, 0], [480, 0, 0], [481, 0, 0]]
    }, 
    {
      "op": "Cast", 
      "name": "east0_cast1", 
      "attrs": {"dtype": "float32"}, 
      "inputs": [[482, 0, 0]]
    }, 
    {
      "op": "null", 
      "name": "east0_conv0_weight", 
      "attrs": {
        "__dtype__": "0", 
        "__lr_mult__": "1.0", 
        "__shape__": "(1, 128, 1, 1)", 
        "__storage_type__": "0", 
        "__wd_mult__": "1.0"
      }, 
      "inputs": []
    }, 
    {
      "op": "null", 
      "name": "east0_conv0_bias", 
      "attrs": {
        "__dtype__": "0", 
        "__init__": "zeros", 
        "__lr_mult__": "1.0", 
        "__shape__": "(1,)", 
        "__storage_type__": "0", 
        "__wd_mult__": "1.0"
      }, 
      "inputs": []
    }, 
    {
      "op": "Convolution", 
      "name": "east0_conv0_fwd", 
      "attrs": {
        "dilate": "(1, 1)", 
        "kernel": "(1, 1)", 
        "layout": "NCHW", 
        "no_bias": "False", 
        "num_filter": "1", 
        "num_group": "1", 
        "pad": "(0, 0)", 
        "stride": "(1, 1)"
      }, 
      "inputs": [[483, 0, 0], [484, 0, 0], [485, 0, 0]]
    }, 
    {
      "op": "Activation", 
      "name": "east0_conv0_sigmoid_fwd", 
      "attrs": {"act_type": "sigmoid"}, 
      "inputs": [[486, 0, 0]]
    }, 
    {
      "op": "null", 
      "name": "east0_conv1_weight", 
      "attrs": {
        "__dtype__": "0", 
        "__lr_mult__": "1.0", 
        "__shape__": "(4, 128, 1, 1)", 
        "__storage_type__": "0", 
        "__wd_mult__": "1.0"
      }, 
      "inputs": []
    }, 
    {
      "op": "null", 
      "name": "east0_conv1_bias", 
      "attrs": {
        "__dtype__": "0", 
        "__init__": "zeros", 
        "__lr_mult__": "1.0", 
        "__shape__": "(4,)", 
        "__storage_type__": "0", 
        "__wd_mult__": "1.0"
      }, 
      "inputs": []
    }, 
    {
      "op": "Convolution", 
      "name": "east0_conv1_fwd", 
      "attrs": {
        "dilate": "(1, 1)", 
        "kernel": "(1, 1)", 
        "layout": "NCHW", 
        "no_bias": "False", 
        "num_filter": "4", 
        "num_group": "1", 
        "pad": "(0, 0)", 
        "stride": "(1, 1)"
      }, 
      "inputs": [[483, 0, 0], [488, 0, 0], [489, 0, 0]]
    }, 
    {
      "op": "Activation", 
      "name": "east0_conv1_sigmoid_fwd", 
      "attrs": {"act_type": "sigmoid"}, 
      "inputs": [[490, 0, 0]]
    }, 
    {
      "op": "_mul_scalar", 
      "name": "east0__mulscalar0", 
      "attrs": {"scalar": "512"}, 
      "inputs": [[491, 0, 0]]
    }, 
    {
      "op": "null", 
      "name": "east0_conv2_weight", 
      "attrs": {
        "__dtype__": "0", 
        "__lr_mult__": "1.0", 
        "__shape__": "(1, 128, 1, 1)", 
        "__storage_type__": "0", 
        "__wd_mult__": "1.0"
      }, 
      "inputs": []
    }, 
    {
      "op": "null", 
      "name": "east0_conv2_bias", 
      "attrs": {
        "__dtype__": "0", 
        "__init__": "zeros", 
        "__lr_mult__": "1.0", 
        "__shape__": "(1,)", 
        "__storage_type__": "0", 
        "__wd_mult__": "1.0"
      }, 
      "inputs": []
    }, 
    {
      "op": "Convolution", 
      "name": "east0_conv2_fwd", 
      "attrs": {
        "dilate": "(1, 1)", 
        "kernel": "(1, 1)", 
        "layout": "NCHW", 
        "no_bias": "False", 
        "num_filter": "1", 
        "num_group": "1", 
        "pad": "(0, 0)", 
        "stride": "(1, 1)"
      }, 
      "inputs": [[483, 0, 0], [493, 0, 0], [494, 0, 0]]
    }, 
    {
      "op": "Activation", 
      "name": "east0_conv2_sigmoid_fwd", 
      "attrs": {"act_type": "sigmoid"}, 
      "inputs": [[495, 0, 0]]
    }, 
    {
      "op": "_minus_scalar", 
      "name": "east0__minusscalar0", 
      "attrs": {"scalar": "0.5"}, 
      "inputs": [[496, 0, 0]]
    }, 
    {
      "op": "_mul_scalar", 
      "name": "east0__mulscalar1", 
      "attrs": {"scalar": "3.141592653589793"}, 
      "inputs": [[497, 0, 0]]
    }, 
    {
      "op": "_div_scalar", 
      "name": "east0__divscalar0", 
      "attrs": {"scalar": "2.0"}, 
      "inputs": [[498, 0, 0]]
    }, 
    {
      "op": "Concat", 
      "name": "east0_concat0", 
      "attrs": {
        "dim": "1", 
        "num_args": "2"
      }, 
      "inputs": [[492, 0, 0], [499, 0, 0]]
    }
  ], 
  "arg_nodes": [
    0, 
    2, 
    4, 
    5, 
    6, 
    7, 
    10, 
    12, 
    13, 
    14, 
    15, 
    18, 
    20, 
    21, 
    22, 
    23, 
    27, 
    29, 
    30, 
    31, 
    32, 
    35, 
    37, 
    38, 
    39, 
    40, 
    43, 
    45, 
    46, 
    47, 
    48, 
    51, 
    53, 
    54, 
    55, 
    56, 
    60, 
    62, 
    63, 
    64, 
    65, 
    68, 
    70, 
    71, 
    72, 
    73, 
    76, 
    78, 
    79, 
    80, 
    81, 
    85, 
    87, 
    88, 
    89, 
    90, 
    93, 
    95, 
    96, 
    97, 
    98, 
    101, 
    103, 
    104, 
    105, 
    106, 
    110, 
    112, 
    113, 
    114, 
    115, 
    118, 
    120, 
    121, 
    122, 
    123, 
    126, 
    128, 
    129, 
    130, 
    131, 
    134, 
    136, 
    137, 
    138, 
    139, 
    143, 
    145, 
    146, 
    147, 
    148, 
    151, 
    153, 
    154, 
    155, 
    156, 
    159, 
    161, 
    162, 
    163, 
    164, 
    168, 
    170, 
    171, 
    172, 
    173, 
    176, 
    178, 
    179, 
    180, 
    181, 
    184, 
    186, 
    187, 
    188, 
    189, 
    193, 
    195, 
    196, 
    197, 
    198, 
    201, 
    203, 
    204, 
    205, 
    206, 
    209, 
    211, 
    212, 
    213, 
    214, 
    218, 
    220, 
    221, 
    222, 
    223, 
    226, 
    228, 
    229, 
    230, 
    231, 
    234, 
    236, 
    237, 
    238, 
    239, 
    242, 
    244, 
    245, 
    246, 
    247, 
    251, 
    253, 
    254, 
    255, 
    256, 
    259, 
    261, 
    262, 
    263, 
    264, 
    267, 
    269, 
    270, 
    271, 
    272, 
    276, 
    278, 
    279, 
    280, 
    281, 
    284, 
    286, 
    287, 
    288, 
    289, 
    292, 
    294, 
    295, 
    296, 
    297, 
    301, 
    303, 
    304, 
    305, 
    306, 
    309, 
    311, 
    312, 
    313, 
    314, 
    317, 
    319, 
    320, 
    321, 
    322, 
    326, 
    328, 
    329, 
    330, 
    331, 
    334, 
    336, 
    337, 
    338, 
    339, 
    342, 
    344, 
    345, 
    346, 
    347, 
    351, 
    353, 
    354, 
    355, 
    356, 
    359, 
    361, 
    362, 
    363, 
    364, 
    367, 
    369, 
    370, 
    371, 
    372, 
    376, 
    378, 
    379, 
    380, 
    381, 
    384, 
    386, 
    387, 
    388, 
    389, 
    392, 
    394, 
    395, 
    396, 
    397, 
    400, 
    402, 
    403, 
    404, 
    405, 
    409, 
    411, 
    412, 
    413, 
    414, 
    417, 
    419, 
    420, 
    421, 
    422, 
    425, 
    427, 
    428, 
    429, 
    430, 
    434, 
    436, 
    437, 
    438, 
    439, 
    442, 
    444, 
    445, 
    446, 
    447, 
    450, 
    452, 
    453, 
    454, 
    455, 
    459, 
    460, 
    462, 
    464, 
    465, 
    468, 
    470, 
    471, 
    474, 
    476, 
    477, 
    480, 
    481, 
    484, 
    485, 
    488, 
    489, 
    493, 
    494
  ], 
  "node_row_ptr": [
    0, 
    1, 
    2, 
    3, 
    4, 
    5, 
    6, 
    7, 
    8, 
    11, 
    12, 
    13, 
    14, 
    15, 
    16, 
    17, 
    18, 
    21, 
    22, 
    23, 
    24, 
    25, 
    26, 
    27, 
    28, 
    31, 
    32, 
    33, 
    34, 
    35, 
    36, 
    37, 
    38, 
    39, 
    42, 
    43, 
    44, 
    45, 
    46, 
    47, 
    48, 
    49, 
    52, 
    53, 
    54, 
    55, 
    56, 
    57, 
    58, 
    59, 
    62, 
    63, 
    64, 
    65, 
    66, 
    67, 
    68, 
    69, 
    72, 
    73, 
    74, 
    75, 
    76, 
    77, 
    78, 
    79, 
    80, 
    83, 
    84, 
    85, 
    86, 
    87, 
    88, 
    89, 
    90, 
    93, 
    94, 
    95, 
    96, 
    97, 
    98, 
    99, 
    100, 
    103, 
    104, 
    105, 
    106, 
    107, 
    108, 
    109, 
    110, 
    111, 
    114, 
    115, 
    116, 
    117, 
    118, 
    119, 
    120, 
    121, 
    124, 
    125, 
    126, 
    127, 
    128, 
    129, 
    130, 
    131, 
    134, 
    135, 
    136, 
    137, 
    138, 
    139, 
    140, 
    141, 
    142, 
    145, 
    146, 
    147, 
    148, 
    149, 
    150, 
    151, 
    152, 
    155, 
    156, 
    157, 
    158, 
    159, 
    160, 
    161, 
    162, 
    165, 
    166, 
    167, 
    168, 
    169, 
    170, 
    171, 
    172, 
    175, 
    176, 
    177, 
    178, 
    179, 
    180, 
    181, 
    182, 
    183, 
    186, 
    187, 
    188, 
    189, 
    190, 
    191, 
    192, 
    193, 
    196, 
    197, 
    198, 
    199, 
    200, 
    201, 
    202, 
    203, 
    206, 
    207, 
    208, 
    209, 
    210, 
    211, 
    212, 
    213, 
    214, 
    217, 
    218, 
    219, 
    220, 
    221, 
    222, 
    223, 
    224, 
    227, 
    228, 
    229, 
    230, 
    231, 
    232, 
    233, 
    234, 
    237, 
    238, 
    239, 
    240, 
    241, 
    242, 
    243, 
    244, 
    245, 
    248, 
    249, 
    250, 
    251, 
    252, 
    253, 
    254, 
    255, 
    258, 
    259, 
    260, 
    261, 
    262, 
    263, 
    264, 
    265, 
    268, 
    269, 
    270, 
    271, 
    272, 
    273, 
    274, 
    275, 
    276, 
    279, 
    280, 
    281, 
    282, 
    283, 
    284, 
    285, 
    286, 
    289, 
    290, 
    291, 
    292, 
    293, 
    294, 
    295, 
    296, 
    299, 
    300, 
    301, 
    302, 
    303, 
    304, 
    305, 
    306, 
    309, 
    310, 
    311, 
    312, 
    313, 
    314, 
    315, 
    316, 
    317, 
    320, 
    321, 
    322, 
    323, 
    324, 
    325, 
    326, 
    327, 
    330, 
    331, 
    332, 
    333, 
    334, 
    335, 
    336, 
    337, 
    340, 
    341, 
    342, 
    343, 
    344, 
    345, 
    346, 
    347, 
    348, 
    351, 
    352, 
    353, 
    354, 
    355, 
    356, 
    357, 
    358, 
    361, 
    362, 
    363, 
    364, 
    365, 
    366, 
    367, 
    368, 
    371, 
    372, 
    373, 
    374, 
    375, 
    376, 
    377, 
    378, 
    379, 
    382, 
    383, 
    384, 
    385, 
    386, 
    387, 
    388, 
    389, 
    392, 
    393, 
    394, 
    395, 
    396, 
    397, 
    398, 
    399, 
    402, 
    403, 
    404, 
    405, 
    406, 
    407, 
    408, 
    409, 
    410, 
    413, 
    414, 
    415, 
    416, 
    417, 
    418, 
    419, 
    420, 
    423, 
    424, 
    425, 
    426, 
    427, 
    428, 
    429, 
    430, 
    433, 
    434, 
    435, 
    436, 
    437, 
    438, 
    439, 
    440, 
    441, 
    444, 
    445, 
    446, 
    447, 
    448, 
    449, 
    450, 
    451, 
    454, 
    455, 
    456, 
    457, 
    458, 
    459, 
    460, 
    461, 
    464, 
    465, 
    466, 
    467, 
    468, 
    469, 
    470, 
    471, 
    472, 
    475, 
    476, 
    477, 
    478, 
    479, 
    480, 
    481, 
    482, 
    485, 
    486, 
    487, 
    488, 
    489, 
    490, 
    491, 
    492, 
    495, 
    496, 
    497, 
    498, 
    499, 
    500, 
    501, 
    502, 
    505, 
    506, 
    507, 
    508, 
    509, 
    510, 
    511, 
    512, 
    513, 
    516, 
    517, 
    518, 
    519, 
    520, 
    521, 
    522, 
    523, 
    526, 
    527, 
    528, 
    529, 
    530, 
    531, 
    532, 
    533, 
    536, 
    537, 
    538, 
    539, 
    540, 
    541, 
    542, 
    543, 
    544, 
    547, 
    548, 
    549, 
    550, 
    551, 
    552, 
    553, 
    554, 
    557, 
    558, 
    559, 
    560, 
    561, 
    562, 
    563, 
    564, 
    567, 
    568, 
    569, 
    570, 
    571, 
    572, 
    573, 
    574, 
    575, 
    576, 
    577, 
    578, 
    579, 
    580, 
    581, 
    582, 
    583, 
    584, 
    585, 
    586, 
    587, 
    588, 
    589, 
    590, 
    591, 
    592, 
    593, 
    594, 
    595, 
    596, 
    597, 
    598, 
    599, 
    600, 
    601, 
    602, 
    603, 
    604, 
    605, 
    606, 
    607, 
    608, 
    609, 
    610, 
    611
  ], 
  "heads": [[487, 0, 0], [500, 0, 0]], 
  "attrs": {"mxnet_version": ["int", 10401]}
}